{
  "format": "graph-model",
  "generatedBy": "torch.save",
  "convertedBy": "tfjs@4.22.0",
  "modelTopology": {
    "node": [
      {
        "name": "input",
        "op": "Placeholder",
        "attr": {
          "dtype": {
            "type": "DT_FLOAT"
          },
          "shape": {
            "shape": {
              "dim": [
                {
                  "size": -1
                },
                {
                  "size": -1
                },
                {
                  "size": -1
                },
                {
                  "size": 3
                }
              ]
            }
          }
        }
      },
      {
        "name": "conv_first/conv",
        "op": "Conv2D",
        "input": [
          "input"
        ],
        "attr": {
          "kernel_size": {
            "list": {
              "i": [
                3,
                3
              ]
            }
          },
          "filters": {
            "i": 64
          },
          "strides": {
            "list": {
              "i": [
                1,
                1
              ]
            }
          },
          "padding": {
            "s": "same"
          },
          "data_format": {
            "s": "NHWC"
          }
        }
      },
      {
        "name": "rrdb_0/rdb1/conv1/conv",
        "op": "Conv2D",
        "input": [
          "conv_first/conv"
        ],
        "attr": {
          "kernel_size": {
            "list": {
              "i": [
                3,
                3
              ]
            }
          },
          "filters": {
            "i": 32
          },
          "strides": {
            "list": {
              "i": [
                1,
                1
              ]
            }
          },
          "padding": {
            "s": "same"
          },
          "data_format": {
            "s": "NHWC"
          }
        }
      },
      {
        "name": "rrdb_0/rdb1/conv1/leaky_relu",
        "op": "LeakyRelu",
        "input": [
          "rrdb_0/rdb1/conv1/conv"
        ],
        "attr": {
          "alpha": {
            "f": 0.2
          }
        }
      },
      {
        "name": "rrdb_0/rdb1/concat1",
        "op": "ConcatV2",
        "input": [
          "conv_first/conv",
          "rrdb_0/rdb1/conv1/leaky_relu"
        ],
        "attr": {
          "N": {
            "i": 2
          },
          "T": {
            "type": "DT_FLOAT"
          },
          "Tidx": {
            "type": "DT_INT32"
          }
        }
      },
      {
        "name": "rrdb_0/rdb1/conv2/conv",
        "op": "Conv2D",
        "input": [
          "rrdb_0/rdb1/concat1"
        ],
        "attr": {
          "kernel_size": {
            "list": {
              "i": [
                3,
                3
              ]
            }
          },
          "filters": {
            "i": 32
          },
          "strides": {
            "list": {
              "i": [
                1,
                1
              ]
            }
          },
          "padding": {
            "s": "same"
          },
          "data_format": {
            "s": "NHWC"
          }
        }
      },
      {
        "name": "rrdb_0/rdb1/conv2/leaky_relu",
        "op": "LeakyRelu",
        "input": [
          "rrdb_0/rdb1/conv2/conv"
        ],
        "attr": {
          "alpha": {
            "f": 0.2
          }
        }
      },
      {
        "name": "rrdb_0/rdb1/concat2",
        "op": "ConcatV2",
        "input": [
          "conv_first/conv",
          "rrdb_0/rdb1/conv1/leaky_relu",
          "rrdb_0/rdb1/conv2/leaky_relu"
        ],
        "attr": {
          "N": {
            "i": 3
          },
          "T": {
            "type": "DT_FLOAT"
          },
          "Tidx": {
            "type": "DT_INT32"
          }
        }
      },
      {
        "name": "rrdb_0/rdb1/conv3/conv",
        "op": "Conv2D",
        "input": [
          "rrdb_0/rdb1/concat2"
        ],
        "attr": {
          "kernel_size": {
            "list": {
              "i": [
                3,
                3
              ]
            }
          },
          "filters": {
            "i": 32
          },
          "strides": {
            "list": {
              "i": [
                1,
                1
              ]
            }
          },
          "padding": {
            "s": "same"
          },
          "data_format": {
            "s": "NHWC"
          }
        }
      },
      {
        "name": "rrdb_0/rdb1/conv3/leaky_relu",
        "op": "LeakyRelu",
        "input": [
          "rrdb_0/rdb1/conv3/conv"
        ],
        "attr": {
          "alpha": {
            "f": 0.2
          }
        }
      },
      {
        "name": "rrdb_0/rdb1/concat3",
        "op": "ConcatV2",
        "input": [
          "conv_first/conv",
          "rrdb_0/rdb1/conv1/leaky_relu",
          "rrdb_0/rdb1/conv2/leaky_relu",
          "rrdb_0/rdb1/conv3/leaky_relu"
        ],
        "attr": {
          "N": {
            "i": 4
          },
          "T": {
            "type": "DT_FLOAT"
          },
          "Tidx": {
            "type": "DT_INT32"
          }
        }
      },
      {
        "name": "rrdb_0/rdb1/conv4/conv",
        "op": "Conv2D",
        "input": [
          "rrdb_0/rdb1/concat3"
        ],
        "attr": {
          "kernel_size": {
            "list": {
              "i": [
                3,
                3
              ]
            }
          },
          "filters": {
            "i": 32
          },
          "strides": {
            "list": {
              "i": [
                1,
                1
              ]
            }
          },
          "padding": {
            "s": "same"
          },
          "data_format": {
            "s": "NHWC"
          }
        }
      },
      {
        "name": "rrdb_0/rdb1/conv4/leaky_relu",
        "op": "LeakyRelu",
        "input": [
          "rrdb_0/rdb1/conv4/conv"
        ],
        "attr": {
          "alpha": {
            "f": 0.2
          }
        }
      },
      {
        "name": "rrdb_0/rdb1/concat4",
        "op": "ConcatV2",
        "input": [
          "conv_first/conv",
          "rrdb_0/rdb1/conv1/leaky_relu",
          "rrdb_0/rdb1/conv2/leaky_relu",
          "rrdb_0/rdb1/conv3/leaky_relu",
          "rrdb_0/rdb1/conv4/leaky_relu"
        ],
        "attr": {
          "N": {
            "i": 5
          },
          "T": {
            "type": "DT_FLOAT"
          },
          "Tidx": {
            "type": "DT_INT32"
          }
        }
      },
      {
        "name": "rrdb_0/rdb1/conv5/conv",
        "op": "Conv2D",
        "input": [
          "rrdb_0/rdb1/concat4"
        ],
        "attr": {
          "kernel_size": {
            "list": {
              "i": [
                3,
                3
              ]
            }
          },
          "filters": {
            "i": 64
          },
          "strides": {
            "list": {
              "i": [
                1,
                1
              ]
            }
          },
          "padding": {
            "s": "same"
          },
          "data_format": {
            "s": "NHWC"
          }
        }
      },
      {
        "name": "rrdb_0/rdb1/add",
        "op": "Add",
        "input": [
          "conv_first/conv",
          "rrdb_0/rdb1/conv5/conv"
        ]
      },
      {
        "name": "rrdb_1/rdb1/conv1/conv",
        "op": "Conv2D",
        "input": [
          "rrdb_0/rdb1/add"
        ],
        "attr": {
          "kernel_size": {
            "list": {
              "i": [
                3,
                3
              ]
            }
          },
          "filters": {
            "i": 32
          },
          "strides": {
            "list": {
              "i": [
                1,
                1
              ]
            }
          },
          "padding": {
            "s": "same"
          },
          "data_format": {
            "s": "NHWC"
          }
        }
      },
      {
        "name": "rrdb_1/rdb1/conv1/leaky_relu",
        "op": "LeakyRelu",
        "input": [
          "rrdb_1/rdb1/conv1/conv"
        ],
        "attr": {
          "alpha": {
            "f": 0.2
          }
        }
      },
      {
        "name": "rrdb_1/rdb1/concat1",
        "op": "ConcatV2",
        "input": [
          "rrdb_0/rdb1/add",
          "rrdb_1/rdb1/conv1/leaky_relu"
        ],
        "attr": {
          "N": {
            "i": 2
          },
          "T": {
            "type": "DT_FLOAT"
          },
          "Tidx": {
            "type": "DT_INT32"
          }
        }
      },
      {
        "name": "rrdb_1/rdb1/conv2/conv",
        "op": "Conv2D",
        "input": [
          "rrdb_1/rdb1/concat1"
        ],
        "attr": {
          "kernel_size": {
            "list": {
              "i": [
                3,
                3
              ]
            }
          },
          "filters": {
            "i": 32
          },
          "strides": {
            "list": {
              "i": [
                1,
                1
              ]
            }
          },
          "padding": {
            "s": "same"
          },
          "data_format": {
            "s": "NHWC"
          }
        }
      },
      {
        "name": "rrdb_1/rdb1/conv2/leaky_relu",
        "op": "LeakyRelu",
        "input": [
          "rrdb_1/rdb1/conv2/conv"
        ],
        "attr": {
          "alpha": {
            "f": 0.2
          }
        }
      },
      {
        "name": "rrdb_1/rdb1/concat2",
        "op": "ConcatV2",
        "input": [
          "rrdb_0/rdb1/add",
          "rrdb_1/rdb1/conv1/leaky_relu",
          "rrdb_1/rdb1/conv2/leaky_relu"
        ],
        "attr": {
          "N": {
            "i": 3
          },
          "T": {
            "type": "DT_FLOAT"
          },
          "Tidx": {
            "type": "DT_INT32"
          }
        }
      },
      {
        "name": "rrdb_1/rdb1/conv3/conv",
        "op": "Conv2D",
        "input": [
          "rrdb_1/rdb1/concat2"
        ],
        "attr": {
          "kernel_size": {
            "list": {
              "i": [
                3,
                3
              ]
            }
          },
          "filters": {
            "i": 32
          },
          "strides": {
            "list": {
              "i": [
                1,
                1
              ]
            }
          },
          "padding": {
            "s": "same"
          },
          "data_format": {
            "s": "NHWC"
          }
        }
      },
      {
        "name": "rrdb_1/rdb1/conv3/leaky_relu",
        "op": "LeakyRelu",
        "input": [
          "rrdb_1/rdb1/conv3/conv"
        ],
        "attr": {
          "alpha": {
            "f": 0.2
          }
        }
      },
      {
        "name": "rrdb_1/rdb1/concat3",
        "op": "ConcatV2",
        "input": [
          "rrdb_0/rdb1/add",
          "rrdb_1/rdb1/conv1/leaky_relu",
          "rrdb_1/rdb1/conv2/leaky_relu",
          "rrdb_1/rdb1/conv3/leaky_relu"
        ],
        "attr": {
          "N": {
            "i": 4
          },
          "T": {
            "type": "DT_FLOAT"
          },
          "Tidx": {
            "type": "DT_INT32"
          }
        }
      },
      {
        "name": "rrdb_1/rdb1/conv4/conv",
        "op": "Conv2D",
        "input": [
          "rrdb_1/rdb1/concat3"
        ],
        "attr": {
          "kernel_size": {
            "list": {
              "i": [
                3,
                3
              ]
            }
          },
          "filters": {
            "i": 32
          },
          "strides": {
            "list": {
              "i": [
                1,
                1
              ]
            }
          },
          "padding": {
            "s": "same"
          },
          "data_format": {
            "s": "NHWC"
          }
        }
      },
      {
        "name": "rrdb_1/rdb1/conv4/leaky_relu",
        "op": "LeakyRelu",
        "input": [
          "rrdb_1/rdb1/conv4/conv"
        ],
        "attr": {
          "alpha": {
            "f": 0.2
          }
        }
      },
      {
        "name": "rrdb_1/rdb1/concat4",
        "op": "ConcatV2",
        "input": [
          "rrdb_0/rdb1/add",
          "rrdb_1/rdb1/conv1/leaky_relu",
          "rrdb_1/rdb1/conv2/leaky_relu",
          "rrdb_1/rdb1/conv3/leaky_relu",
          "rrdb_1/rdb1/conv4/leaky_relu"
        ],
        "attr": {
          "N": {
            "i": 5
          },
          "T": {
            "type": "DT_FLOAT"
          },
          "Tidx": {
            "type": "DT_INT32"
          }
        }
      },
      {
        "name": "rrdb_1/rdb1/conv5/conv",
        "op": "Conv2D",
        "input": [
          "rrdb_1/rdb1/concat4"
        ],
        "attr": {
          "kernel_size": {
            "list": {
              "i": [
                3,
                3
              ]
            }
          },
          "filters": {
            "i": 64
          },
          "strides": {
            "list": {
              "i": [
                1,
                1
              ]
            }
          },
          "padding": {
            "s": "same"
          },
          "data_format": {
            "s": "NHWC"
          }
        }
      },
      {
        "name": "rrdb_1/rdb1/add",
        "op": "Add",
        "input": [
          "rrdb_0/rdb1/add",
          "rrdb_1/rdb1/conv5/conv"
        ]
      },
      {
        "name": "rrdb_2/rdb1/conv1/conv",
        "op": "Conv2D",
        "input": [
          "rrdb_1/rdb1/add"
        ],
        "attr": {
          "kernel_size": {
            "list": {
              "i": [
                3,
                3
              ]
            }
          },
          "filters": {
            "i": 32
          },
          "strides": {
            "list": {
              "i": [
                1,
                1
              ]
            }
          },
          "padding": {
            "s": "same"
          },
          "data_format": {
            "s": "NHWC"
          }
        }
      },
      {
        "name": "rrdb_2/rdb1/conv1/leaky_relu",
        "op": "LeakyRelu",
        "input": [
          "rrdb_2/rdb1/conv1/conv"
        ],
        "attr": {
          "alpha": {
            "f": 0.2
          }
        }
      },
      {
        "name": "rrdb_2/rdb1/concat1",
        "op": "ConcatV2",
        "input": [
          "rrdb_1/rdb1/add",
          "rrdb_2/rdb1/conv1/leaky_relu"
        ],
        "attr": {
          "N": {
            "i": 2
          },
          "T": {
            "type": "DT_FLOAT"
          },
          "Tidx": {
            "type": "DT_INT32"
          }
        }
      },
      {
        "name": "rrdb_2/rdb1/conv2/conv",
        "op": "Conv2D",
        "input": [
          "rrdb_2/rdb1/concat1"
        ],
        "attr": {
          "kernel_size": {
            "list": {
              "i": [
                3,
                3
              ]
            }
          },
          "filters": {
            "i": 32
          },
          "strides": {
            "list": {
              "i": [
                1,
                1
              ]
            }
          },
          "padding": {
            "s": "same"
          },
          "data_format": {
            "s": "NHWC"
          }
        }
      },
      {
        "name": "rrdb_2/rdb1/conv2/leaky_relu",
        "op": "LeakyRelu",
        "input": [
          "rrdb_2/rdb1/conv2/conv"
        ],
        "attr": {
          "alpha": {
            "f": 0.2
          }
        }
      },
      {
        "name": "rrdb_2/rdb1/concat2",
        "op": "ConcatV2",
        "input": [
          "rrdb_1/rdb1/add",
          "rrdb_2/rdb1/conv1/leaky_relu",
          "rrdb_2/rdb1/conv2/leaky_relu"
        ],
        "attr": {
          "N": {
            "i": 3
          },
          "T": {
            "type": "DT_FLOAT"
          },
          "Tidx": {
            "type": "DT_INT32"
          }
        }
      },
      {
        "name": "rrdb_2/rdb1/conv3/conv",
        "op": "Conv2D",
        "input": [
          "rrdb_2/rdb1/concat2"
        ],
        "attr": {
          "kernel_size": {
            "list": {
              "i": [
                3,
                3
              ]
            }
          },
          "filters": {
            "i": 32
          },
          "strides": {
            "list": {
              "i": [
                1,
                1
              ]
            }
          },
          "padding": {
            "s": "same"
          },
          "data_format": {
            "s": "NHWC"
          }
        }
      },
      {
        "name": "rrdb_2/rdb1/conv3/leaky_relu",
        "op": "LeakyRelu",
        "input": [
          "rrdb_2/rdb1/conv3/conv"
        ],
        "attr": {
          "alpha": {
            "f": 0.2
          }
        }
      },
      {
        "name": "rrdb_2/rdb1/concat3",
        "op": "ConcatV2",
        "input": [
          "rrdb_1/rdb1/add",
          "rrdb_2/rdb1/conv1/leaky_relu",
          "rrdb_2/rdb1/conv2/leaky_relu",
          "rrdb_2/rdb1/conv3/leaky_relu"
        ],
        "attr": {
          "N": {
            "i": 4
          },
          "T": {
            "type": "DT_FLOAT"
          },
          "Tidx": {
            "type": "DT_INT32"
          }
        }
      },
      {
        "name": "rrdb_2/rdb1/conv4/conv",
        "op": "Conv2D",
        "input": [
          "rrdb_2/rdb1/concat3"
        ],
        "attr": {
          "kernel_size": {
            "list": {
              "i": [
                3,
                3
              ]
            }
          },
          "filters": {
            "i": 32
          },
          "strides": {
            "list": {
              "i": [
                1,
                1
              ]
            }
          },
          "padding": {
            "s": "same"
          },
          "data_format": {
            "s": "NHWC"
          }
        }
      },
      {
        "name": "rrdb_2/rdb1/conv4/leaky_relu",
        "op": "LeakyRelu",
        "input": [
          "rrdb_2/rdb1/conv4/conv"
        ],
        "attr": {
          "alpha": {
            "f": 0.2
          }
        }
      },
      {
        "name": "rrdb_2/rdb1/concat4",
        "op": "ConcatV2",
        "input": [
          "rrdb_1/rdb1/add",
          "rrdb_2/rdb1/conv1/leaky_relu",
          "rrdb_2/rdb1/conv2/leaky_relu",
          "rrdb_2/rdb1/conv3/leaky_relu",
          "rrdb_2/rdb1/conv4/leaky_relu"
        ],
        "attr": {
          "N": {
            "i": 5
          },
          "T": {
            "type": "DT_FLOAT"
          },
          "Tidx": {
            "type": "DT_INT32"
          }
        }
      },
      {
        "name": "rrdb_2/rdb1/conv5/conv",
        "op": "Conv2D",
        "input": [
          "rrdb_2/rdb1/concat4"
        ],
        "attr": {
          "kernel_size": {
            "list": {
              "i": [
                3,
                3
              ]
            }
          },
          "filters": {
            "i": 64
          },
          "strides": {
            "list": {
              "i": [
                1,
                1
              ]
            }
          },
          "padding": {
            "s": "same"
          },
          "data_format": {
            "s": "NHWC"
          }
        }
      },
      {
        "name": "rrdb_2/rdb1/add",
        "op": "Add",
        "input": [
          "rrdb_1/rdb1/add",
          "rrdb_2/rdb1/conv5/conv"
        ]
      },
      {
        "name": "rrdb_3/rdb1/conv1/conv",
        "op": "Conv2D",
        "input": [
          "rrdb_2/rdb1/add"
        ],
        "attr": {
          "kernel_size": {
            "list": {
              "i": [
                3,
                3
              ]
            }
          },
          "filters": {
            "i": 32
          },
          "strides": {
            "list": {
              "i": [
                1,
                1
              ]
            }
          },
          "padding": {
            "s": "same"
          },
          "data_format": {
            "s": "NHWC"
          }
        }
      },
      {
        "name": "rrdb_3/rdb1/conv1/leaky_relu",
        "op": "LeakyRelu",
        "input": [
          "rrdb_3/rdb1/conv1/conv"
        ],
        "attr": {
          "alpha": {
            "f": 0.2
          }
        }
      },
      {
        "name": "rrdb_3/rdb1/concat1",
        "op": "ConcatV2",
        "input": [
          "rrdb_2/rdb1/add",
          "rrdb_3/rdb1/conv1/leaky_relu"
        ],
        "attr": {
          "N": {
            "i": 2
          },
          "T": {
            "type": "DT_FLOAT"
          },
          "Tidx": {
            "type": "DT_INT32"
          }
        }
      },
      {
        "name": "rrdb_3/rdb1/conv2/conv",
        "op": "Conv2D",
        "input": [
          "rrdb_3/rdb1/concat1"
        ],
        "attr": {
          "kernel_size": {
            "list": {
              "i": [
                3,
                3
              ]
            }
          },
          "filters": {
            "i": 32
          },
          "strides": {
            "list": {
              "i": [
                1,
                1
              ]
            }
          },
          "padding": {
            "s": "same"
          },
          "data_format": {
            "s": "NHWC"
          }
        }
      },
      {
        "name": "rrdb_3/rdb1/conv2/leaky_relu",
        "op": "LeakyRelu",
        "input": [
          "rrdb_3/rdb1/conv2/conv"
        ],
        "attr": {
          "alpha": {
            "f": 0.2
          }
        }
      },
      {
        "name": "rrdb_3/rdb1/concat2",
        "op": "ConcatV2",
        "input": [
          "rrdb_2/rdb1/add",
          "rrdb_3/rdb1/conv1/leaky_relu",
          "rrdb_3/rdb1/conv2/leaky_relu"
        ],
        "attr": {
          "N": {
            "i": 3
          },
          "T": {
            "type": "DT_FLOAT"
          },
          "Tidx": {
            "type": "DT_INT32"
          }
        }
      },
      {
        "name": "rrdb_3/rdb1/conv3/conv",
        "op": "Conv2D",
        "input": [
          "rrdb_3/rdb1/concat2"
        ],
        "attr": {
          "kernel_size": {
            "list": {
              "i": [
                3,
                3
              ]
            }
          },
          "filters": {
            "i": 32
          },
          "strides": {
            "list": {
              "i": [
                1,
                1
              ]
            }
          },
          "padding": {
            "s": "same"
          },
          "data_format": {
            "s": "NHWC"
          }
        }
      },
      {
        "name": "rrdb_3/rdb1/conv3/leaky_relu",
        "op": "LeakyRelu",
        "input": [
          "rrdb_3/rdb1/conv3/conv"
        ],
        "attr": {
          "alpha": {
            "f": 0.2
          }
        }
      },
      {
        "name": "rrdb_3/rdb1/concat3",
        "op": "ConcatV2",
        "input": [
          "rrdb_2/rdb1/add",
          "rrdb_3/rdb1/conv1/leaky_relu",
          "rrdb_3/rdb1/conv2/leaky_relu",
          "rrdb_3/rdb1/conv3/leaky_relu"
        ],
        "attr": {
          "N": {
            "i": 4
          },
          "T": {
            "type": "DT_FLOAT"
          },
          "Tidx": {
            "type": "DT_INT32"
          }
        }
      },
      {
        "name": "rrdb_3/rdb1/conv4/conv",
        "op": "Conv2D",
        "input": [
          "rrdb_3/rdb1/concat3"
        ],
        "attr": {
          "kernel_size": {
            "list": {
              "i": [
                3,
                3
              ]
            }
          },
          "filters": {
            "i": 32
          },
          "strides": {
            "list": {
              "i": [
                1,
                1
              ]
            }
          },
          "padding": {
            "s": "same"
          },
          "data_format": {
            "s": "NHWC"
          }
        }
      },
      {
        "name": "rrdb_3/rdb1/conv4/leaky_relu",
        "op": "LeakyRelu",
        "input": [
          "rrdb_3/rdb1/conv4/conv"
        ],
        "attr": {
          "alpha": {
            "f": 0.2
          }
        }
      },
      {
        "name": "rrdb_3/rdb1/concat4",
        "op": "ConcatV2",
        "input": [
          "rrdb_2/rdb1/add",
          "rrdb_3/rdb1/conv1/leaky_relu",
          "rrdb_3/rdb1/conv2/leaky_relu",
          "rrdb_3/rdb1/conv3/leaky_relu",
          "rrdb_3/rdb1/conv4/leaky_relu"
        ],
        "attr": {
          "N": {
            "i": 5
          },
          "T": {
            "type": "DT_FLOAT"
          },
          "Tidx": {
            "type": "DT_INT32"
          }
        }
      },
      {
        "name": "rrdb_3/rdb1/conv5/conv",
        "op": "Conv2D",
        "input": [
          "rrdb_3/rdb1/concat4"
        ],
        "attr": {
          "kernel_size": {
            "list": {
              "i": [
                3,
                3
              ]
            }
          },
          "filters": {
            "i": 64
          },
          "strides": {
            "list": {
              "i": [
                1,
                1
              ]
            }
          },
          "padding": {
            "s": "same"
          },
          "data_format": {
            "s": "NHWC"
          }
        }
      },
      {
        "name": "rrdb_3/rdb1/add",
        "op": "Add",
        "input": [
          "rrdb_2/rdb1/add",
          "rrdb_3/rdb1/conv5/conv"
        ]
      },
      {
        "name": "rrdb_4/rdb1/conv1/conv",
        "op": "Conv2D",
        "input": [
          "rrdb_3/rdb1/add"
        ],
        "attr": {
          "kernel_size": {
            "list": {
              "i": [
                3,
                3
              ]
            }
          },
          "filters": {
            "i": 32
          },
          "strides": {
            "list": {
              "i": [
                1,
                1
              ]
            }
          },
          "padding": {
            "s": "same"
          },
          "data_format": {
            "s": "NHWC"
          }
        }
      },
      {
        "name": "rrdb_4/rdb1/conv1/leaky_relu",
        "op": "LeakyRelu",
        "input": [
          "rrdb_4/rdb1/conv1/conv"
        ],
        "attr": {
          "alpha": {
            "f": 0.2
          }
        }
      },
      {
        "name": "rrdb_4/rdb1/concat1",
        "op": "ConcatV2",
        "input": [
          "rrdb_3/rdb1/add",
          "rrdb_4/rdb1/conv1/leaky_relu"
        ],
        "attr": {
          "N": {
            "i": 2
          },
          "T": {
            "type": "DT_FLOAT"
          },
          "Tidx": {
            "type": "DT_INT32"
          }
        }
      },
      {
        "name": "rrdb_4/rdb1/conv2/conv",
        "op": "Conv2D",
        "input": [
          "rrdb_4/rdb1/concat1"
        ],
        "attr": {
          "kernel_size": {
            "list": {
              "i": [
                3,
                3
              ]
            }
          },
          "filters": {
            "i": 32
          },
          "strides": {
            "list": {
              "i": [
                1,
                1
              ]
            }
          },
          "padding": {
            "s": "same"
          },
          "data_format": {
            "s": "NHWC"
          }
        }
      },
      {
        "name": "rrdb_4/rdb1/conv2/leaky_relu",
        "op": "LeakyRelu",
        "input": [
          "rrdb_4/rdb1/conv2/conv"
        ],
        "attr": {
          "alpha": {
            "f": 0.2
          }
        }
      },
      {
        "name": "rrdb_4/rdb1/concat2",
        "op": "ConcatV2",
        "input": [
          "rrdb_3/rdb1/add",
          "rrdb_4/rdb1/conv1/leaky_relu",
          "rrdb_4/rdb1/conv2/leaky_relu"
        ],
        "attr": {
          "N": {
            "i": 3
          },
          "T": {
            "type": "DT_FLOAT"
          },
          "Tidx": {
            "type": "DT_INT32"
          }
        }
      },
      {
        "name": "rrdb_4/rdb1/conv3/conv",
        "op": "Conv2D",
        "input": [
          "rrdb_4/rdb1/concat2"
        ],
        "attr": {
          "kernel_size": {
            "list": {
              "i": [
                3,
                3
              ]
            }
          },
          "filters": {
            "i": 32
          },
          "strides": {
            "list": {
              "i": [
                1,
                1
              ]
            }
          },
          "padding": {
            "s": "same"
          },
          "data_format": {
            "s": "NHWC"
          }
        }
      },
      {
        "name": "rrdb_4/rdb1/conv3/leaky_relu",
        "op": "LeakyRelu",
        "input": [
          "rrdb_4/rdb1/conv3/conv"
        ],
        "attr": {
          "alpha": {
            "f": 0.2
          }
        }
      },
      {
        "name": "rrdb_4/rdb1/concat3",
        "op": "ConcatV2",
        "input": [
          "rrdb_3/rdb1/add",
          "rrdb_4/rdb1/conv1/leaky_relu",
          "rrdb_4/rdb1/conv2/leaky_relu",
          "rrdb_4/rdb1/conv3/leaky_relu"
        ],
        "attr": {
          "N": {
            "i": 4
          },
          "T": {
            "type": "DT_FLOAT"
          },
          "Tidx": {
            "type": "DT_INT32"
          }
        }
      },
      {
        "name": "rrdb_4/rdb1/conv4/conv",
        "op": "Conv2D",
        "input": [
          "rrdb_4/rdb1/concat3"
        ],
        "attr": {
          "kernel_size": {
            "list": {
              "i": [
                3,
                3
              ]
            }
          },
          "filters": {
            "i": 32
          },
          "strides": {
            "list": {
              "i": [
                1,
                1
              ]
            }
          },
          "padding": {
            "s": "same"
          },
          "data_format": {
            "s": "NHWC"
          }
        }
      },
      {
        "name": "rrdb_4/rdb1/conv4/leaky_relu",
        "op": "LeakyRelu",
        "input": [
          "rrdb_4/rdb1/conv4/conv"
        ],
        "attr": {
          "alpha": {
            "f": 0.2
          }
        }
      },
      {
        "name": "rrdb_4/rdb1/concat4",
        "op": "ConcatV2",
        "input": [
          "rrdb_3/rdb1/add",
          "rrdb_4/rdb1/conv1/leaky_relu",
          "rrdb_4/rdb1/conv2/leaky_relu",
          "rrdb_4/rdb1/conv3/leaky_relu",
          "rrdb_4/rdb1/conv4/leaky_relu"
        ],
        "attr": {
          "N": {
            "i": 5
          },
          "T": {
            "type": "DT_FLOAT"
          },
          "Tidx": {
            "type": "DT_INT32"
          }
        }
      },
      {
        "name": "rrdb_4/rdb1/conv5/conv",
        "op": "Conv2D",
        "input": [
          "rrdb_4/rdb1/concat4"
        ],
        "attr": {
          "kernel_size": {
            "list": {
              "i": [
                3,
                3
              ]
            }
          },
          "filters": {
            "i": 64
          },
          "strides": {
            "list": {
              "i": [
                1,
                1
              ]
            }
          },
          "padding": {
            "s": "same"
          },
          "data_format": {
            "s": "NHWC"
          }
        }
      },
      {
        "name": "rrdb_4/rdb1/add",
        "op": "Add",
        "input": [
          "rrdb_3/rdb1/add",
          "rrdb_4/rdb1/conv5/conv"
        ]
      },
      {
        "name": "rrdb_5/rdb1/conv1/conv",
        "op": "Conv2D",
        "input": [
          "rrdb_4/rdb1/add"
        ],
        "attr": {
          "kernel_size": {
            "list": {
              "i": [
                3,
                3
              ]
            }
          },
          "filters": {
            "i": 32
          },
          "strides": {
            "list": {
              "i": [
                1,
                1
              ]
            }
          },
          "padding": {
            "s": "same"
          },
          "data_format": {
            "s": "NHWC"
          }
        }
      },
      {
        "name": "rrdb_5/rdb1/conv1/leaky_relu",
        "op": "LeakyRelu",
        "input": [
          "rrdb_5/rdb1/conv1/conv"
        ],
        "attr": {
          "alpha": {
            "f": 0.2
          }
        }
      },
      {
        "name": "rrdb_5/rdb1/concat1",
        "op": "ConcatV2",
        "input": [
          "rrdb_4/rdb1/add",
          "rrdb_5/rdb1/conv1/leaky_relu"
        ],
        "attr": {
          "N": {
            "i": 2
          },
          "T": {
            "type": "DT_FLOAT"
          },
          "Tidx": {
            "type": "DT_INT32"
          }
        }
      },
      {
        "name": "rrdb_5/rdb1/conv2/conv",
        "op": "Conv2D",
        "input": [
          "rrdb_5/rdb1/concat1"
        ],
        "attr": {
          "kernel_size": {
            "list": {
              "i": [
                3,
                3
              ]
            }
          },
          "filters": {
            "i": 32
          },
          "strides": {
            "list": {
              "i": [
                1,
                1
              ]
            }
          },
          "padding": {
            "s": "same"
          },
          "data_format": {
            "s": "NHWC"
          }
        }
      },
      {
        "name": "rrdb_5/rdb1/conv2/leaky_relu",
        "op": "LeakyRelu",
        "input": [
          "rrdb_5/rdb1/conv2/conv"
        ],
        "attr": {
          "alpha": {
            "f": 0.2
          }
        }
      },
      {
        "name": "rrdb_5/rdb1/concat2",
        "op": "ConcatV2",
        "input": [
          "rrdb_4/rdb1/add",
          "rrdb_5/rdb1/conv1/leaky_relu",
          "rrdb_5/rdb1/conv2/leaky_relu"
        ],
        "attr": {
          "N": {
            "i": 3
          },
          "T": {
            "type": "DT_FLOAT"
          },
          "Tidx": {
            "type": "DT_INT32"
          }
        }
      },
      {
        "name": "rrdb_5/rdb1/conv3/conv",
        "op": "Conv2D",
        "input": [
          "rrdb_5/rdb1/concat2"
        ],
        "attr": {
          "kernel_size": {
            "list": {
              "i": [
                3,
                3
              ]
            }
          },
          "filters": {
            "i": 32
          },
          "strides": {
            "list": {
              "i": [
                1,
                1
              ]
            }
          },
          "padding": {
            "s": "same"
          },
          "data_format": {
            "s": "NHWC"
          }
        }
      },
      {
        "name": "rrdb_5/rdb1/conv3/leaky_relu",
        "op": "LeakyRelu",
        "input": [
          "rrdb_5/rdb1/conv3/conv"
        ],
        "attr": {
          "alpha": {
            "f": 0.2
          }
        }
      },
      {
        "name": "rrdb_5/rdb1/concat3",
        "op": "ConcatV2",
        "input": [
          "rrdb_4/rdb1/add",
          "rrdb_5/rdb1/conv1/leaky_relu",
          "rrdb_5/rdb1/conv2/leaky_relu",
          "rrdb_5/rdb1/conv3/leaky_relu"
        ],
        "attr": {
          "N": {
            "i": 4
          },
          "T": {
            "type": "DT_FLOAT"
          },
          "Tidx": {
            "type": "DT_INT32"
          }
        }
      },
      {
        "name": "rrdb_5/rdb1/conv4/conv",
        "op": "Conv2D",
        "input": [
          "rrdb_5/rdb1/concat3"
        ],
        "attr": {
          "kernel_size": {
            "list": {
              "i": [
                3,
                3
              ]
            }
          },
          "filters": {
            "i": 32
          },
          "strides": {
            "list": {
              "i": [
                1,
                1
              ]
            }
          },
          "padding": {
            "s": "same"
          },
          "data_format": {
            "s": "NHWC"
          }
        }
      },
      {
        "name": "rrdb_5/rdb1/conv4/leaky_relu",
        "op": "LeakyRelu",
        "input": [
          "rrdb_5/rdb1/conv4/conv"
        ],
        "attr": {
          "alpha": {
            "f": 0.2
          }
        }
      },
      {
        "name": "rrdb_5/rdb1/concat4",
        "op": "ConcatV2",
        "input": [
          "rrdb_4/rdb1/add",
          "rrdb_5/rdb1/conv1/leaky_relu",
          "rrdb_5/rdb1/conv2/leaky_relu",
          "rrdb_5/rdb1/conv3/leaky_relu",
          "rrdb_5/rdb1/conv4/leaky_relu"
        ],
        "attr": {
          "N": {
            "i": 5
          },
          "T": {
            "type": "DT_FLOAT"
          },
          "Tidx": {
            "type": "DT_INT32"
          }
        }
      },
      {
        "name": "rrdb_5/rdb1/conv5/conv",
        "op": "Conv2D",
        "input": [
          "rrdb_5/rdb1/concat4"
        ],
        "attr": {
          "kernel_size": {
            "list": {
              "i": [
                3,
                3
              ]
            }
          },
          "filters": {
            "i": 64
          },
          "strides": {
            "list": {
              "i": [
                1,
                1
              ]
            }
          },
          "padding": {
            "s": "same"
          },
          "data_format": {
            "s": "NHWC"
          }
        }
      },
      {
        "name": "rrdb_5/rdb1/add",
        "op": "Add",
        "input": [
          "rrdb_4/rdb1/add",
          "rrdb_5/rdb1/conv5/conv"
        ]
      },
      {
        "name": "rrdb_6/rdb1/conv1/conv",
        "op": "Conv2D",
        "input": [
          "rrdb_5/rdb1/add"
        ],
        "attr": {
          "kernel_size": {
            "list": {
              "i": [
                3,
                3
              ]
            }
          },
          "filters": {
            "i": 32
          },
          "strides": {
            "list": {
              "i": [
                1,
                1
              ]
            }
          },
          "padding": {
            "s": "same"
          },
          "data_format": {
            "s": "NHWC"
          }
        }
      },
      {
        "name": "rrdb_6/rdb1/conv1/leaky_relu",
        "op": "LeakyRelu",
        "input": [
          "rrdb_6/rdb1/conv1/conv"
        ],
        "attr": {
          "alpha": {
            "f": 0.2
          }
        }
      },
      {
        "name": "rrdb_6/rdb1/concat1",
        "op": "ConcatV2",
        "input": [
          "rrdb_5/rdb1/add",
          "rrdb_6/rdb1/conv1/leaky_relu"
        ],
        "attr": {
          "N": {
            "i": 2
          },
          "T": {
            "type": "DT_FLOAT"
          },
          "Tidx": {
            "type": "DT_INT32"
          }
        }
      },
      {
        "name": "rrdb_6/rdb1/conv2/conv",
        "op": "Conv2D",
        "input": [
          "rrdb_6/rdb1/concat1"
        ],
        "attr": {
          "kernel_size": {
            "list": {
              "i": [
                3,
                3
              ]
            }
          },
          "filters": {
            "i": 32
          },
          "strides": {
            "list": {
              "i": [
                1,
                1
              ]
            }
          },
          "padding": {
            "s": "same"
          },
          "data_format": {
            "s": "NHWC"
          }
        }
      },
      {
        "name": "rrdb_6/rdb1/conv2/leaky_relu",
        "op": "LeakyRelu",
        "input": [
          "rrdb_6/rdb1/conv2/conv"
        ],
        "attr": {
          "alpha": {
            "f": 0.2
          }
        }
      },
      {
        "name": "rrdb_6/rdb1/concat2",
        "op": "ConcatV2",
        "input": [
          "rrdb_5/rdb1/add",
          "rrdb_6/rdb1/conv1/leaky_relu",
          "rrdb_6/rdb1/conv2/leaky_relu"
        ],
        "attr": {
          "N": {
            "i": 3
          },
          "T": {
            "type": "DT_FLOAT"
          },
          "Tidx": {
            "type": "DT_INT32"
          }
        }
      },
      {
        "name": "rrdb_6/rdb1/conv3/conv",
        "op": "Conv2D",
        "input": [
          "rrdb_6/rdb1/concat2"
        ],
        "attr": {
          "kernel_size": {
            "list": {
              "i": [
                3,
                3
              ]
            }
          },
          "filters": {
            "i": 32
          },
          "strides": {
            "list": {
              "i": [
                1,
                1
              ]
            }
          },
          "padding": {
            "s": "same"
          },
          "data_format": {
            "s": "NHWC"
          }
        }
      },
      {
        "name": "rrdb_6/rdb1/conv3/leaky_relu",
        "op": "LeakyRelu",
        "input": [
          "rrdb_6/rdb1/conv3/conv"
        ],
        "attr": {
          "alpha": {
            "f": 0.2
          }
        }
      },
      {
        "name": "rrdb_6/rdb1/concat3",
        "op": "ConcatV2",
        "input": [
          "rrdb_5/rdb1/add",
          "rrdb_6/rdb1/conv1/leaky_relu",
          "rrdb_6/rdb1/conv2/leaky_relu",
          "rrdb_6/rdb1/conv3/leaky_relu"
        ],
        "attr": {
          "N": {
            "i": 4
          },
          "T": {
            "type": "DT_FLOAT"
          },
          "Tidx": {
            "type": "DT_INT32"
          }
        }
      },
      {
        "name": "rrdb_6/rdb1/conv4/conv",
        "op": "Conv2D",
        "input": [
          "rrdb_6/rdb1/concat3"
        ],
        "attr": {
          "kernel_size": {
            "list": {
              "i": [
                3,
                3
              ]
            }
          },
          "filters": {
            "i": 32
          },
          "strides": {
            "list": {
              "i": [
                1,
                1
              ]
            }
          },
          "padding": {
            "s": "same"
          },
          "data_format": {
            "s": "NHWC"
          }
        }
      },
      {
        "name": "rrdb_6/rdb1/conv4/leaky_relu",
        "op": "LeakyRelu",
        "input": [
          "rrdb_6/rdb1/conv4/conv"
        ],
        "attr": {
          "alpha": {
            "f": 0.2
          }
        }
      },
      {
        "name": "rrdb_6/rdb1/concat4",
        "op": "ConcatV2",
        "input": [
          "rrdb_5/rdb1/add",
          "rrdb_6/rdb1/conv1/leaky_relu",
          "rrdb_6/rdb1/conv2/leaky_relu",
          "rrdb_6/rdb1/conv3/leaky_relu",
          "rrdb_6/rdb1/conv4/leaky_relu"
        ],
        "attr": {
          "N": {
            "i": 5
          },
          "T": {
            "type": "DT_FLOAT"
          },
          "Tidx": {
            "type": "DT_INT32"
          }
        }
      },
      {
        "name": "rrdb_6/rdb1/conv5/conv",
        "op": "Conv2D",
        "input": [
          "rrdb_6/rdb1/concat4"
        ],
        "attr": {
          "kernel_size": {
            "list": {
              "i": [
                3,
                3
              ]
            }
          },
          "filters": {
            "i": 64
          },
          "strides": {
            "list": {
              "i": [
                1,
                1
              ]
            }
          },
          "padding": {
            "s": "same"
          },
          "data_format": {
            "s": "NHWC"
          }
        }
      },
      {
        "name": "rrdb_6/rdb1/add",
        "op": "Add",
        "input": [
          "rrdb_5/rdb1/add",
          "rrdb_6/rdb1/conv5/conv"
        ]
      },
      {
        "name": "rrdb_7/rdb1/conv1/conv",
        "op": "Conv2D",
        "input": [
          "rrdb_6/rdb1/add"
        ],
        "attr": {
          "kernel_size": {
            "list": {
              "i": [
                3,
                3
              ]
            }
          },
          "filters": {
            "i": 32
          },
          "strides": {
            "list": {
              "i": [
                1,
                1
              ]
            }
          },
          "padding": {
            "s": "same"
          },
          "data_format": {
            "s": "NHWC"
          }
        }
      },
      {
        "name": "rrdb_7/rdb1/conv1/leaky_relu",
        "op": "LeakyRelu",
        "input": [
          "rrdb_7/rdb1/conv1/conv"
        ],
        "attr": {
          "alpha": {
            "f": 0.2
          }
        }
      },
      {
        "name": "rrdb_7/rdb1/concat1",
        "op": "ConcatV2",
        "input": [
          "rrdb_6/rdb1/add",
          "rrdb_7/rdb1/conv1/leaky_relu"
        ],
        "attr": {
          "N": {
            "i": 2
          },
          "T": {
            "type": "DT_FLOAT"
          },
          "Tidx": {
            "type": "DT_INT32"
          }
        }
      },
      {
        "name": "rrdb_7/rdb1/conv2/conv",
        "op": "Conv2D",
        "input": [
          "rrdb_7/rdb1/concat1"
        ],
        "attr": {
          "kernel_size": {
            "list": {
              "i": [
                3,
                3
              ]
            }
          },
          "filters": {
            "i": 32
          },
          "strides": {
            "list": {
              "i": [
                1,
                1
              ]
            }
          },
          "padding": {
            "s": "same"
          },
          "data_format": {
            "s": "NHWC"
          }
        }
      },
      {
        "name": "rrdb_7/rdb1/conv2/leaky_relu",
        "op": "LeakyRelu",
        "input": [
          "rrdb_7/rdb1/conv2/conv"
        ],
        "attr": {
          "alpha": {
            "f": 0.2
          }
        }
      },
      {
        "name": "rrdb_7/rdb1/concat2",
        "op": "ConcatV2",
        "input": [
          "rrdb_6/rdb1/add",
          "rrdb_7/rdb1/conv1/leaky_relu",
          "rrdb_7/rdb1/conv2/leaky_relu"
        ],
        "attr": {
          "N": {
            "i": 3
          },
          "T": {
            "type": "DT_FLOAT"
          },
          "Tidx": {
            "type": "DT_INT32"
          }
        }
      },
      {
        "name": "rrdb_7/rdb1/conv3/conv",
        "op": "Conv2D",
        "input": [
          "rrdb_7/rdb1/concat2"
        ],
        "attr": {
          "kernel_size": {
            "list": {
              "i": [
                3,
                3
              ]
            }
          },
          "filters": {
            "i": 32
          },
          "strides": {
            "list": {
              "i": [
                1,
                1
              ]
            }
          },
          "padding": {
            "s": "same"
          },
          "data_format": {
            "s": "NHWC"
          }
        }
      },
      {
        "name": "rrdb_7/rdb1/conv3/leaky_relu",
        "op": "LeakyRelu",
        "input": [
          "rrdb_7/rdb1/conv3/conv"
        ],
        "attr": {
          "alpha": {
            "f": 0.2
          }
        }
      },
      {
        "name": "rrdb_7/rdb1/concat3",
        "op": "ConcatV2",
        "input": [
          "rrdb_6/rdb1/add",
          "rrdb_7/rdb1/conv1/leaky_relu",
          "rrdb_7/rdb1/conv2/leaky_relu",
          "rrdb_7/rdb1/conv3/leaky_relu"
        ],
        "attr": {
          "N": {
            "i": 4
          },
          "T": {
            "type": "DT_FLOAT"
          },
          "Tidx": {
            "type": "DT_INT32"
          }
        }
      },
      {
        "name": "rrdb_7/rdb1/conv4/conv",
        "op": "Conv2D",
        "input": [
          "rrdb_7/rdb1/concat3"
        ],
        "attr": {
          "kernel_size": {
            "list": {
              "i": [
                3,
                3
              ]
            }
          },
          "filters": {
            "i": 32
          },
          "strides": {
            "list": {
              "i": [
                1,
                1
              ]
            }
          },
          "padding": {
            "s": "same"
          },
          "data_format": {
            "s": "NHWC"
          }
        }
      },
      {
        "name": "rrdb_7/rdb1/conv4/leaky_relu",
        "op": "LeakyRelu",
        "input": [
          "rrdb_7/rdb1/conv4/conv"
        ],
        "attr": {
          "alpha": {
            "f": 0.2
          }
        }
      },
      {
        "name": "rrdb_7/rdb1/concat4",
        "op": "ConcatV2",
        "input": [
          "rrdb_6/rdb1/add",
          "rrdb_7/rdb1/conv1/leaky_relu",
          "rrdb_7/rdb1/conv2/leaky_relu",
          "rrdb_7/rdb1/conv3/leaky_relu",
          "rrdb_7/rdb1/conv4/leaky_relu"
        ],
        "attr": {
          "N": {
            "i": 5
          },
          "T": {
            "type": "DT_FLOAT"
          },
          "Tidx": {
            "type": "DT_INT32"
          }
        }
      },
      {
        "name": "rrdb_7/rdb1/conv5/conv",
        "op": "Conv2D",
        "input": [
          "rrdb_7/rdb1/concat4"
        ],
        "attr": {
          "kernel_size": {
            "list": {
              "i": [
                3,
                3
              ]
            }
          },
          "filters": {
            "i": 64
          },
          "strides": {
            "list": {
              "i": [
                1,
                1
              ]
            }
          },
          "padding": {
            "s": "same"
          },
          "data_format": {
            "s": "NHWC"
          }
        }
      },
      {
        "name": "rrdb_7/rdb1/add",
        "op": "Add",
        "input": [
          "rrdb_6/rdb1/add",
          "rrdb_7/rdb1/conv5/conv"
        ]
      },
      {
        "name": "rrdb_8/rdb1/conv1/conv",
        "op": "Conv2D",
        "input": [
          "rrdb_7/rdb1/add"
        ],
        "attr": {
          "kernel_size": {
            "list": {
              "i": [
                3,
                3
              ]
            }
          },
          "filters": {
            "i": 32
          },
          "strides": {
            "list": {
              "i": [
                1,
                1
              ]
            }
          },
          "padding": {
            "s": "same"
          },
          "data_format": {
            "s": "NHWC"
          }
        }
      },
      {
        "name": "rrdb_8/rdb1/conv1/leaky_relu",
        "op": "LeakyRelu",
        "input": [
          "rrdb_8/rdb1/conv1/conv"
        ],
        "attr": {
          "alpha": {
            "f": 0.2
          }
        }
      },
      {
        "name": "rrdb_8/rdb1/concat1",
        "op": "ConcatV2",
        "input": [
          "rrdb_7/rdb1/add",
          "rrdb_8/rdb1/conv1/leaky_relu"
        ],
        "attr": {
          "N": {
            "i": 2
          },
          "T": {
            "type": "DT_FLOAT"
          },
          "Tidx": {
            "type": "DT_INT32"
          }
        }
      },
      {
        "name": "rrdb_8/rdb1/conv2/conv",
        "op": "Conv2D",
        "input": [
          "rrdb_8/rdb1/concat1"
        ],
        "attr": {
          "kernel_size": {
            "list": {
              "i": [
                3,
                3
              ]
            }
          },
          "filters": {
            "i": 32
          },
          "strides": {
            "list": {
              "i": [
                1,
                1
              ]
            }
          },
          "padding": {
            "s": "same"
          },
          "data_format": {
            "s": "NHWC"
          }
        }
      },
      {
        "name": "rrdb_8/rdb1/conv2/leaky_relu",
        "op": "LeakyRelu",
        "input": [
          "rrdb_8/rdb1/conv2/conv"
        ],
        "attr": {
          "alpha": {
            "f": 0.2
          }
        }
      },
      {
        "name": "rrdb_8/rdb1/concat2",
        "op": "ConcatV2",
        "input": [
          "rrdb_7/rdb1/add",
          "rrdb_8/rdb1/conv1/leaky_relu",
          "rrdb_8/rdb1/conv2/leaky_relu"
        ],
        "attr": {
          "N": {
            "i": 3
          },
          "T": {
            "type": "DT_FLOAT"
          },
          "Tidx": {
            "type": "DT_INT32"
          }
        }
      },
      {
        "name": "rrdb_8/rdb1/conv3/conv",
        "op": "Conv2D",
        "input": [
          "rrdb_8/rdb1/concat2"
        ],
        "attr": {
          "kernel_size": {
            "list": {
              "i": [
                3,
                3
              ]
            }
          },
          "filters": {
            "i": 32
          },
          "strides": {
            "list": {
              "i": [
                1,
                1
              ]
            }
          },
          "padding": {
            "s": "same"
          },
          "data_format": {
            "s": "NHWC"
          }
        }
      },
      {
        "name": "rrdb_8/rdb1/conv3/leaky_relu",
        "op": "LeakyRelu",
        "input": [
          "rrdb_8/rdb1/conv3/conv"
        ],
        "attr": {
          "alpha": {
            "f": 0.2
          }
        }
      },
      {
        "name": "rrdb_8/rdb1/concat3",
        "op": "ConcatV2",
        "input": [
          "rrdb_7/rdb1/add",
          "rrdb_8/rdb1/conv1/leaky_relu",
          "rrdb_8/rdb1/conv2/leaky_relu",
          "rrdb_8/rdb1/conv3/leaky_relu"
        ],
        "attr": {
          "N": {
            "i": 4
          },
          "T": {
            "type": "DT_FLOAT"
          },
          "Tidx": {
            "type": "DT_INT32"
          }
        }
      },
      {
        "name": "rrdb_8/rdb1/conv4/conv",
        "op": "Conv2D",
        "input": [
          "rrdb_8/rdb1/concat3"
        ],
        "attr": {
          "kernel_size": {
            "list": {
              "i": [
                3,
                3
              ]
            }
          },
          "filters": {
            "i": 32
          },
          "strides": {
            "list": {
              "i": [
                1,
                1
              ]
            }
          },
          "padding": {
            "s": "same"
          },
          "data_format": {
            "s": "NHWC"
          }
        }
      },
      {
        "name": "rrdb_8/rdb1/conv4/leaky_relu",
        "op": "LeakyRelu",
        "input": [
          "rrdb_8/rdb1/conv4/conv"
        ],
        "attr": {
          "alpha": {
            "f": 0.2
          }
        }
      },
      {
        "name": "rrdb_8/rdb1/concat4",
        "op": "ConcatV2",
        "input": [
          "rrdb_7/rdb1/add",
          "rrdb_8/rdb1/conv1/leaky_relu",
          "rrdb_8/rdb1/conv2/leaky_relu",
          "rrdb_8/rdb1/conv3/leaky_relu",
          "rrdb_8/rdb1/conv4/leaky_relu"
        ],
        "attr": {
          "N": {
            "i": 5
          },
          "T": {
            "type": "DT_FLOAT"
          },
          "Tidx": {
            "type": "DT_INT32"
          }
        }
      },
      {
        "name": "rrdb_8/rdb1/conv5/conv",
        "op": "Conv2D",
        "input": [
          "rrdb_8/rdb1/concat4"
        ],
        "attr": {
          "kernel_size": {
            "list": {
              "i": [
                3,
                3
              ]
            }
          },
          "filters": {
            "i": 64
          },
          "strides": {
            "list": {
              "i": [
                1,
                1
              ]
            }
          },
          "padding": {
            "s": "same"
          },
          "data_format": {
            "s": "NHWC"
          }
        }
      },
      {
        "name": "rrdb_8/rdb1/add",
        "op": "Add",
        "input": [
          "rrdb_7/rdb1/add",
          "rrdb_8/rdb1/conv5/conv"
        ]
      },
      {
        "name": "rrdb_9/rdb1/conv1/conv",
        "op": "Conv2D",
        "input": [
          "rrdb_8/rdb1/add"
        ],
        "attr": {
          "kernel_size": {
            "list": {
              "i": [
                3,
                3
              ]
            }
          },
          "filters": {
            "i": 32
          },
          "strides": {
            "list": {
              "i": [
                1,
                1
              ]
            }
          },
          "padding": {
            "s": "same"
          },
          "data_format": {
            "s": "NHWC"
          }
        }
      },
      {
        "name": "rrdb_9/rdb1/conv1/leaky_relu",
        "op": "LeakyRelu",
        "input": [
          "rrdb_9/rdb1/conv1/conv"
        ],
        "attr": {
          "alpha": {
            "f": 0.2
          }
        }
      },
      {
        "name": "rrdb_9/rdb1/concat1",
        "op": "ConcatV2",
        "input": [
          "rrdb_8/rdb1/add",
          "rrdb_9/rdb1/conv1/leaky_relu"
        ],
        "attr": {
          "N": {
            "i": 2
          },
          "T": {
            "type": "DT_FLOAT"
          },
          "Tidx": {
            "type": "DT_INT32"
          }
        }
      },
      {
        "name": "rrdb_9/rdb1/conv2/conv",
        "op": "Conv2D",
        "input": [
          "rrdb_9/rdb1/concat1"
        ],
        "attr": {
          "kernel_size": {
            "list": {
              "i": [
                3,
                3
              ]
            }
          },
          "filters": {
            "i": 32
          },
          "strides": {
            "list": {
              "i": [
                1,
                1
              ]
            }
          },
          "padding": {
            "s": "same"
          },
          "data_format": {
            "s": "NHWC"
          }
        }
      },
      {
        "name": "rrdb_9/rdb1/conv2/leaky_relu",
        "op": "LeakyRelu",
        "input": [
          "rrdb_9/rdb1/conv2/conv"
        ],
        "attr": {
          "alpha": {
            "f": 0.2
          }
        }
      },
      {
        "name": "rrdb_9/rdb1/concat2",
        "op": "ConcatV2",
        "input": [
          "rrdb_8/rdb1/add",
          "rrdb_9/rdb1/conv1/leaky_relu",
          "rrdb_9/rdb1/conv2/leaky_relu"
        ],
        "attr": {
          "N": {
            "i": 3
          },
          "T": {
            "type": "DT_FLOAT"
          },
          "Tidx": {
            "type": "DT_INT32"
          }
        }
      },
      {
        "name": "rrdb_9/rdb1/conv3/conv",
        "op": "Conv2D",
        "input": [
          "rrdb_9/rdb1/concat2"
        ],
        "attr": {
          "kernel_size": {
            "list": {
              "i": [
                3,
                3
              ]
            }
          },
          "filters": {
            "i": 32
          },
          "strides": {
            "list": {
              "i": [
                1,
                1
              ]
            }
          },
          "padding": {
            "s": "same"
          },
          "data_format": {
            "s": "NHWC"
          }
        }
      },
      {
        "name": "rrdb_9/rdb1/conv3/leaky_relu",
        "op": "LeakyRelu",
        "input": [
          "rrdb_9/rdb1/conv3/conv"
        ],
        "attr": {
          "alpha": {
            "f": 0.2
          }
        }
      },
      {
        "name": "rrdb_9/rdb1/concat3",
        "op": "ConcatV2",
        "input": [
          "rrdb_8/rdb1/add",
          "rrdb_9/rdb1/conv1/leaky_relu",
          "rrdb_9/rdb1/conv2/leaky_relu",
          "rrdb_9/rdb1/conv3/leaky_relu"
        ],
        "attr": {
          "N": {
            "i": 4
          },
          "T": {
            "type": "DT_FLOAT"
          },
          "Tidx": {
            "type": "DT_INT32"
          }
        }
      },
      {
        "name": "rrdb_9/rdb1/conv4/conv",
        "op": "Conv2D",
        "input": [
          "rrdb_9/rdb1/concat3"
        ],
        "attr": {
          "kernel_size": {
            "list": {
              "i": [
                3,
                3
              ]
            }
          },
          "filters": {
            "i": 32
          },
          "strides": {
            "list": {
              "i": [
                1,
                1
              ]
            }
          },
          "padding": {
            "s": "same"
          },
          "data_format": {
            "s": "NHWC"
          }
        }
      },
      {
        "name": "rrdb_9/rdb1/conv4/leaky_relu",
        "op": "LeakyRelu",
        "input": [
          "rrdb_9/rdb1/conv4/conv"
        ],
        "attr": {
          "alpha": {
            "f": 0.2
          }
        }
      },
      {
        "name": "rrdb_9/rdb1/concat4",
        "op": "ConcatV2",
        "input": [
          "rrdb_8/rdb1/add",
          "rrdb_9/rdb1/conv1/leaky_relu",
          "rrdb_9/rdb1/conv2/leaky_relu",
          "rrdb_9/rdb1/conv3/leaky_relu",
          "rrdb_9/rdb1/conv4/leaky_relu"
        ],
        "attr": {
          "N": {
            "i": 5
          },
          "T": {
            "type": "DT_FLOAT"
          },
          "Tidx": {
            "type": "DT_INT32"
          }
        }
      },
      {
        "name": "rrdb_9/rdb1/conv5/conv",
        "op": "Conv2D",
        "input": [
          "rrdb_9/rdb1/concat4"
        ],
        "attr": {
          "kernel_size": {
            "list": {
              "i": [
                3,
                3
              ]
            }
          },
          "filters": {
            "i": 64
          },
          "strides": {
            "list": {
              "i": [
                1,
                1
              ]
            }
          },
          "padding": {
            "s": "same"
          },
          "data_format": {
            "s": "NHWC"
          }
        }
      },
      {
        "name": "rrdb_9/rdb1/add",
        "op": "Add",
        "input": [
          "rrdb_8/rdb1/add",
          "rrdb_9/rdb1/conv5/conv"
        ]
      },
      {
        "name": "rrdb_10/rdb1/conv1/conv",
        "op": "Conv2D",
        "input": [
          "rrdb_9/rdb1/add"
        ],
        "attr": {
          "kernel_size": {
            "list": {
              "i": [
                3,
                3
              ]
            }
          },
          "filters": {
            "i": 32
          },
          "strides": {
            "list": {
              "i": [
                1,
                1
              ]
            }
          },
          "padding": {
            "s": "same"
          },
          "data_format": {
            "s": "NHWC"
          }
        }
      },
      {
        "name": "rrdb_10/rdb1/conv1/leaky_relu",
        "op": "LeakyRelu",
        "input": [
          "rrdb_10/rdb1/conv1/conv"
        ],
        "attr": {
          "alpha": {
            "f": 0.2
          }
        }
      },
      {
        "name": "rrdb_10/rdb1/concat1",
        "op": "ConcatV2",
        "input": [
          "rrdb_9/rdb1/add",
          "rrdb_10/rdb1/conv1/leaky_relu"
        ],
        "attr": {
          "N": {
            "i": 2
          },
          "T": {
            "type": "DT_FLOAT"
          },
          "Tidx": {
            "type": "DT_INT32"
          }
        }
      },
      {
        "name": "rrdb_10/rdb1/conv2/conv",
        "op": "Conv2D",
        "input": [
          "rrdb_10/rdb1/concat1"
        ],
        "attr": {
          "kernel_size": {
            "list": {
              "i": [
                3,
                3
              ]
            }
          },
          "filters": {
            "i": 32
          },
          "strides": {
            "list": {
              "i": [
                1,
                1
              ]
            }
          },
          "padding": {
            "s": "same"
          },
          "data_format": {
            "s": "NHWC"
          }
        }
      },
      {
        "name": "rrdb_10/rdb1/conv2/leaky_relu",
        "op": "LeakyRelu",
        "input": [
          "rrdb_10/rdb1/conv2/conv"
        ],
        "attr": {
          "alpha": {
            "f": 0.2
          }
        }
      },
      {
        "name": "rrdb_10/rdb1/concat2",
        "op": "ConcatV2",
        "input": [
          "rrdb_9/rdb1/add",
          "rrdb_10/rdb1/conv1/leaky_relu",
          "rrdb_10/rdb1/conv2/leaky_relu"
        ],
        "attr": {
          "N": {
            "i": 3
          },
          "T": {
            "type": "DT_FLOAT"
          },
          "Tidx": {
            "type": "DT_INT32"
          }
        }
      },
      {
        "name": "rrdb_10/rdb1/conv3/conv",
        "op": "Conv2D",
        "input": [
          "rrdb_10/rdb1/concat2"
        ],
        "attr": {
          "kernel_size": {
            "list": {
              "i": [
                3,
                3
              ]
            }
          },
          "filters": {
            "i": 32
          },
          "strides": {
            "list": {
              "i": [
                1,
                1
              ]
            }
          },
          "padding": {
            "s": "same"
          },
          "data_format": {
            "s": "NHWC"
          }
        }
      },
      {
        "name": "rrdb_10/rdb1/conv3/leaky_relu",
        "op": "LeakyRelu",
        "input": [
          "rrdb_10/rdb1/conv3/conv"
        ],
        "attr": {
          "alpha": {
            "f": 0.2
          }
        }
      },
      {
        "name": "rrdb_10/rdb1/concat3",
        "op": "ConcatV2",
        "input": [
          "rrdb_9/rdb1/add",
          "rrdb_10/rdb1/conv1/leaky_relu",
          "rrdb_10/rdb1/conv2/leaky_relu",
          "rrdb_10/rdb1/conv3/leaky_relu"
        ],
        "attr": {
          "N": {
            "i": 4
          },
          "T": {
            "type": "DT_FLOAT"
          },
          "Tidx": {
            "type": "DT_INT32"
          }
        }
      },
      {
        "name": "rrdb_10/rdb1/conv4/conv",
        "op": "Conv2D",
        "input": [
          "rrdb_10/rdb1/concat3"
        ],
        "attr": {
          "kernel_size": {
            "list": {
              "i": [
                3,
                3
              ]
            }
          },
          "filters": {
            "i": 32
          },
          "strides": {
            "list": {
              "i": [
                1,
                1
              ]
            }
          },
          "padding": {
            "s": "same"
          },
          "data_format": {
            "s": "NHWC"
          }
        }
      },
      {
        "name": "rrdb_10/rdb1/conv4/leaky_relu",
        "op": "LeakyRelu",
        "input": [
          "rrdb_10/rdb1/conv4/conv"
        ],
        "attr": {
          "alpha": {
            "f": 0.2
          }
        }
      },
      {
        "name": "rrdb_10/rdb1/concat4",
        "op": "ConcatV2",
        "input": [
          "rrdb_9/rdb1/add",
          "rrdb_10/rdb1/conv1/leaky_relu",
          "rrdb_10/rdb1/conv2/leaky_relu",
          "rrdb_10/rdb1/conv3/leaky_relu",
          "rrdb_10/rdb1/conv4/leaky_relu"
        ],
        "attr": {
          "N": {
            "i": 5
          },
          "T": {
            "type": "DT_FLOAT"
          },
          "Tidx": {
            "type": "DT_INT32"
          }
        }
      },
      {
        "name": "rrdb_10/rdb1/conv5/conv",
        "op": "Conv2D",
        "input": [
          "rrdb_10/rdb1/concat4"
        ],
        "attr": {
          "kernel_size": {
            "list": {
              "i": [
                3,
                3
              ]
            }
          },
          "filters": {
            "i": 64
          },
          "strides": {
            "list": {
              "i": [
                1,
                1
              ]
            }
          },
          "padding": {
            "s": "same"
          },
          "data_format": {
            "s": "NHWC"
          }
        }
      },
      {
        "name": "rrdb_10/rdb1/add",
        "op": "Add",
        "input": [
          "rrdb_9/rdb1/add",
          "rrdb_10/rdb1/conv5/conv"
        ]
      },
      {
        "name": "rrdb_11/rdb1/conv1/conv",
        "op": "Conv2D",
        "input": [
          "rrdb_10/rdb1/add"
        ],
        "attr": {
          "kernel_size": {
            "list": {
              "i": [
                3,
                3
              ]
            }
          },
          "filters": {
            "i": 32
          },
          "strides": {
            "list": {
              "i": [
                1,
                1
              ]
            }
          },
          "padding": {
            "s": "same"
          },
          "data_format": {
            "s": "NHWC"
          }
        }
      },
      {
        "name": "rrdb_11/rdb1/conv1/leaky_relu",
        "op": "LeakyRelu",
        "input": [
          "rrdb_11/rdb1/conv1/conv"
        ],
        "attr": {
          "alpha": {
            "f": 0.2
          }
        }
      },
      {
        "name": "rrdb_11/rdb1/concat1",
        "op": "ConcatV2",
        "input": [
          "rrdb_10/rdb1/add",
          "rrdb_11/rdb1/conv1/leaky_relu"
        ],
        "attr": {
          "N": {
            "i": 2
          },
          "T": {
            "type": "DT_FLOAT"
          },
          "Tidx": {
            "type": "DT_INT32"
          }
        }
      },
      {
        "name": "rrdb_11/rdb1/conv2/conv",
        "op": "Conv2D",
        "input": [
          "rrdb_11/rdb1/concat1"
        ],
        "attr": {
          "kernel_size": {
            "list": {
              "i": [
                3,
                3
              ]
            }
          },
          "filters": {
            "i": 32
          },
          "strides": {
            "list": {
              "i": [
                1,
                1
              ]
            }
          },
          "padding": {
            "s": "same"
          },
          "data_format": {
            "s": "NHWC"
          }
        }
      },
      {
        "name": "rrdb_11/rdb1/conv2/leaky_relu",
        "op": "LeakyRelu",
        "input": [
          "rrdb_11/rdb1/conv2/conv"
        ],
        "attr": {
          "alpha": {
            "f": 0.2
          }
        }
      },
      {
        "name": "rrdb_11/rdb1/concat2",
        "op": "ConcatV2",
        "input": [
          "rrdb_10/rdb1/add",
          "rrdb_11/rdb1/conv1/leaky_relu",
          "rrdb_11/rdb1/conv2/leaky_relu"
        ],
        "attr": {
          "N": {
            "i": 3
          },
          "T": {
            "type": "DT_FLOAT"
          },
          "Tidx": {
            "type": "DT_INT32"
          }
        }
      },
      {
        "name": "rrdb_11/rdb1/conv3/conv",
        "op": "Conv2D",
        "input": [
          "rrdb_11/rdb1/concat2"
        ],
        "attr": {
          "kernel_size": {
            "list": {
              "i": [
                3,
                3
              ]
            }
          },
          "filters": {
            "i": 32
          },
          "strides": {
            "list": {
              "i": [
                1,
                1
              ]
            }
          },
          "padding": {
            "s": "same"
          },
          "data_format": {
            "s": "NHWC"
          }
        }
      },
      {
        "name": "rrdb_11/rdb1/conv3/leaky_relu",
        "op": "LeakyRelu",
        "input": [
          "rrdb_11/rdb1/conv3/conv"
        ],
        "attr": {
          "alpha": {
            "f": 0.2
          }
        }
      },
      {
        "name": "rrdb_11/rdb1/concat3",
        "op": "ConcatV2",
        "input": [
          "rrdb_10/rdb1/add",
          "rrdb_11/rdb1/conv1/leaky_relu",
          "rrdb_11/rdb1/conv2/leaky_relu",
          "rrdb_11/rdb1/conv3/leaky_relu"
        ],
        "attr": {
          "N": {
            "i": 4
          },
          "T": {
            "type": "DT_FLOAT"
          },
          "Tidx": {
            "type": "DT_INT32"
          }
        }
      },
      {
        "name": "rrdb_11/rdb1/conv4/conv",
        "op": "Conv2D",
        "input": [
          "rrdb_11/rdb1/concat3"
        ],
        "attr": {
          "kernel_size": {
            "list": {
              "i": [
                3,
                3
              ]
            }
          },
          "filters": {
            "i": 32
          },
          "strides": {
            "list": {
              "i": [
                1,
                1
              ]
            }
          },
          "padding": {
            "s": "same"
          },
          "data_format": {
            "s": "NHWC"
          }
        }
      },
      {
        "name": "rrdb_11/rdb1/conv4/leaky_relu",
        "op": "LeakyRelu",
        "input": [
          "rrdb_11/rdb1/conv4/conv"
        ],
        "attr": {
          "alpha": {
            "f": 0.2
          }
        }
      },
      {
        "name": "rrdb_11/rdb1/concat4",
        "op": "ConcatV2",
        "input": [
          "rrdb_10/rdb1/add",
          "rrdb_11/rdb1/conv1/leaky_relu",
          "rrdb_11/rdb1/conv2/leaky_relu",
          "rrdb_11/rdb1/conv3/leaky_relu",
          "rrdb_11/rdb1/conv4/leaky_relu"
        ],
        "attr": {
          "N": {
            "i": 5
          },
          "T": {
            "type": "DT_FLOAT"
          },
          "Tidx": {
            "type": "DT_INT32"
          }
        }
      },
      {
        "name": "rrdb_11/rdb1/conv5/conv",
        "op": "Conv2D",
        "input": [
          "rrdb_11/rdb1/concat4"
        ],
        "attr": {
          "kernel_size": {
            "list": {
              "i": [
                3,
                3
              ]
            }
          },
          "filters": {
            "i": 64
          },
          "strides": {
            "list": {
              "i": [
                1,
                1
              ]
            }
          },
          "padding": {
            "s": "same"
          },
          "data_format": {
            "s": "NHWC"
          }
        }
      },
      {
        "name": "rrdb_11/rdb1/add",
        "op": "Add",
        "input": [
          "rrdb_10/rdb1/add",
          "rrdb_11/rdb1/conv5/conv"
        ]
      },
      {
        "name": "rrdb_12/rdb1/conv1/conv",
        "op": "Conv2D",
        "input": [
          "rrdb_11/rdb1/add"
        ],
        "attr": {
          "kernel_size": {
            "list": {
              "i": [
                3,
                3
              ]
            }
          },
          "filters": {
            "i": 32
          },
          "strides": {
            "list": {
              "i": [
                1,
                1
              ]
            }
          },
          "padding": {
            "s": "same"
          },
          "data_format": {
            "s": "NHWC"
          }
        }
      },
      {
        "name": "rrdb_12/rdb1/conv1/leaky_relu",
        "op": "LeakyRelu",
        "input": [
          "rrdb_12/rdb1/conv1/conv"
        ],
        "attr": {
          "alpha": {
            "f": 0.2
          }
        }
      },
      {
        "name": "rrdb_12/rdb1/concat1",
        "op": "ConcatV2",
        "input": [
          "rrdb_11/rdb1/add",
          "rrdb_12/rdb1/conv1/leaky_relu"
        ],
        "attr": {
          "N": {
            "i": 2
          },
          "T": {
            "type": "DT_FLOAT"
          },
          "Tidx": {
            "type": "DT_INT32"
          }
        }
      },
      {
        "name": "rrdb_12/rdb1/conv2/conv",
        "op": "Conv2D",
        "input": [
          "rrdb_12/rdb1/concat1"
        ],
        "attr": {
          "kernel_size": {
            "list": {
              "i": [
                3,
                3
              ]
            }
          },
          "filters": {
            "i": 32
          },
          "strides": {
            "list": {
              "i": [
                1,
                1
              ]
            }
          },
          "padding": {
            "s": "same"
          },
          "data_format": {
            "s": "NHWC"
          }
        }
      },
      {
        "name": "rrdb_12/rdb1/conv2/leaky_relu",
        "op": "LeakyRelu",
        "input": [
          "rrdb_12/rdb1/conv2/conv"
        ],
        "attr": {
          "alpha": {
            "f": 0.2
          }
        }
      },
      {
        "name": "rrdb_12/rdb1/concat2",
        "op": "ConcatV2",
        "input": [
          "rrdb_11/rdb1/add",
          "rrdb_12/rdb1/conv1/leaky_relu",
          "rrdb_12/rdb1/conv2/leaky_relu"
        ],
        "attr": {
          "N": {
            "i": 3
          },
          "T": {
            "type": "DT_FLOAT"
          },
          "Tidx": {
            "type": "DT_INT32"
          }
        }
      },
      {
        "name": "rrdb_12/rdb1/conv3/conv",
        "op": "Conv2D",
        "input": [
          "rrdb_12/rdb1/concat2"
        ],
        "attr": {
          "kernel_size": {
            "list": {
              "i": [
                3,
                3
              ]
            }
          },
          "filters": {
            "i": 32
          },
          "strides": {
            "list": {
              "i": [
                1,
                1
              ]
            }
          },
          "padding": {
            "s": "same"
          },
          "data_format": {
            "s": "NHWC"
          }
        }
      },
      {
        "name": "rrdb_12/rdb1/conv3/leaky_relu",
        "op": "LeakyRelu",
        "input": [
          "rrdb_12/rdb1/conv3/conv"
        ],
        "attr": {
          "alpha": {
            "f": 0.2
          }
        }
      },
      {
        "name": "rrdb_12/rdb1/concat3",
        "op": "ConcatV2",
        "input": [
          "rrdb_11/rdb1/add",
          "rrdb_12/rdb1/conv1/leaky_relu",
          "rrdb_12/rdb1/conv2/leaky_relu",
          "rrdb_12/rdb1/conv3/leaky_relu"
        ],
        "attr": {
          "N": {
            "i": 4
          },
          "T": {
            "type": "DT_FLOAT"
          },
          "Tidx": {
            "type": "DT_INT32"
          }
        }
      },
      {
        "name": "rrdb_12/rdb1/conv4/conv",
        "op": "Conv2D",
        "input": [
          "rrdb_12/rdb1/concat3"
        ],
        "attr": {
          "kernel_size": {
            "list": {
              "i": [
                3,
                3
              ]
            }
          },
          "filters": {
            "i": 32
          },
          "strides": {
            "list": {
              "i": [
                1,
                1
              ]
            }
          },
          "padding": {
            "s": "same"
          },
          "data_format": {
            "s": "NHWC"
          }
        }
      },
      {
        "name": "rrdb_12/rdb1/conv4/leaky_relu",
        "op": "LeakyRelu",
        "input": [
          "rrdb_12/rdb1/conv4/conv"
        ],
        "attr": {
          "alpha": {
            "f": 0.2
          }
        }
      },
      {
        "name": "rrdb_12/rdb1/concat4",
        "op": "ConcatV2",
        "input": [
          "rrdb_11/rdb1/add",
          "rrdb_12/rdb1/conv1/leaky_relu",
          "rrdb_12/rdb1/conv2/leaky_relu",
          "rrdb_12/rdb1/conv3/leaky_relu",
          "rrdb_12/rdb1/conv4/leaky_relu"
        ],
        "attr": {
          "N": {
            "i": 5
          },
          "T": {
            "type": "DT_FLOAT"
          },
          "Tidx": {
            "type": "DT_INT32"
          }
        }
      },
      {
        "name": "rrdb_12/rdb1/conv5/conv",
        "op": "Conv2D",
        "input": [
          "rrdb_12/rdb1/concat4"
        ],
        "attr": {
          "kernel_size": {
            "list": {
              "i": [
                3,
                3
              ]
            }
          },
          "filters": {
            "i": 64
          },
          "strides": {
            "list": {
              "i": [
                1,
                1
              ]
            }
          },
          "padding": {
            "s": "same"
          },
          "data_format": {
            "s": "NHWC"
          }
        }
      },
      {
        "name": "rrdb_12/rdb1/add",
        "op": "Add",
        "input": [
          "rrdb_11/rdb1/add",
          "rrdb_12/rdb1/conv5/conv"
        ]
      },
      {
        "name": "rrdb_13/rdb1/conv1/conv",
        "op": "Conv2D",
        "input": [
          "rrdb_12/rdb1/add"
        ],
        "attr": {
          "kernel_size": {
            "list": {
              "i": [
                3,
                3
              ]
            }
          },
          "filters": {
            "i": 32
          },
          "strides": {
            "list": {
              "i": [
                1,
                1
              ]
            }
          },
          "padding": {
            "s": "same"
          },
          "data_format": {
            "s": "NHWC"
          }
        }
      },
      {
        "name": "rrdb_13/rdb1/conv1/leaky_relu",
        "op": "LeakyRelu",
        "input": [
          "rrdb_13/rdb1/conv1/conv"
        ],
        "attr": {
          "alpha": {
            "f": 0.2
          }
        }
      },
      {
        "name": "rrdb_13/rdb1/concat1",
        "op": "ConcatV2",
        "input": [
          "rrdb_12/rdb1/add",
          "rrdb_13/rdb1/conv1/leaky_relu"
        ],
        "attr": {
          "N": {
            "i": 2
          },
          "T": {
            "type": "DT_FLOAT"
          },
          "Tidx": {
            "type": "DT_INT32"
          }
        }
      },
      {
        "name": "rrdb_13/rdb1/conv2/conv",
        "op": "Conv2D",
        "input": [
          "rrdb_13/rdb1/concat1"
        ],
        "attr": {
          "kernel_size": {
            "list": {
              "i": [
                3,
                3
              ]
            }
          },
          "filters": {
            "i": 32
          },
          "strides": {
            "list": {
              "i": [
                1,
                1
              ]
            }
          },
          "padding": {
            "s": "same"
          },
          "data_format": {
            "s": "NHWC"
          }
        }
      },
      {
        "name": "rrdb_13/rdb1/conv2/leaky_relu",
        "op": "LeakyRelu",
        "input": [
          "rrdb_13/rdb1/conv2/conv"
        ],
        "attr": {
          "alpha": {
            "f": 0.2
          }
        }
      },
      {
        "name": "rrdb_13/rdb1/concat2",
        "op": "ConcatV2",
        "input": [
          "rrdb_12/rdb1/add",
          "rrdb_13/rdb1/conv1/leaky_relu",
          "rrdb_13/rdb1/conv2/leaky_relu"
        ],
        "attr": {
          "N": {
            "i": 3
          },
          "T": {
            "type": "DT_FLOAT"
          },
          "Tidx": {
            "type": "DT_INT32"
          }
        }
      },
      {
        "name": "rrdb_13/rdb1/conv3/conv",
        "op": "Conv2D",
        "input": [
          "rrdb_13/rdb1/concat2"
        ],
        "attr": {
          "kernel_size": {
            "list": {
              "i": [
                3,
                3
              ]
            }
          },
          "filters": {
            "i": 32
          },
          "strides": {
            "list": {
              "i": [
                1,
                1
              ]
            }
          },
          "padding": {
            "s": "same"
          },
          "data_format": {
            "s": "NHWC"
          }
        }
      },
      {
        "name": "rrdb_13/rdb1/conv3/leaky_relu",
        "op": "LeakyRelu",
        "input": [
          "rrdb_13/rdb1/conv3/conv"
        ],
        "attr": {
          "alpha": {
            "f": 0.2
          }
        }
      },
      {
        "name": "rrdb_13/rdb1/concat3",
        "op": "ConcatV2",
        "input": [
          "rrdb_12/rdb1/add",
          "rrdb_13/rdb1/conv1/leaky_relu",
          "rrdb_13/rdb1/conv2/leaky_relu",
          "rrdb_13/rdb1/conv3/leaky_relu"
        ],
        "attr": {
          "N": {
            "i": 4
          },
          "T": {
            "type": "DT_FLOAT"
          },
          "Tidx": {
            "type": "DT_INT32"
          }
        }
      },
      {
        "name": "rrdb_13/rdb1/conv4/conv",
        "op": "Conv2D",
        "input": [
          "rrdb_13/rdb1/concat3"
        ],
        "attr": {
          "kernel_size": {
            "list": {
              "i": [
                3,
                3
              ]
            }
          },
          "filters": {
            "i": 32
          },
          "strides": {
            "list": {
              "i": [
                1,
                1
              ]
            }
          },
          "padding": {
            "s": "same"
          },
          "data_format": {
            "s": "NHWC"
          }
        }
      },
      {
        "name": "rrdb_13/rdb1/conv4/leaky_relu",
        "op": "LeakyRelu",
        "input": [
          "rrdb_13/rdb1/conv4/conv"
        ],
        "attr": {
          "alpha": {
            "f": 0.2
          }
        }
      },
      {
        "name": "rrdb_13/rdb1/concat4",
        "op": "ConcatV2",
        "input": [
          "rrdb_12/rdb1/add",
          "rrdb_13/rdb1/conv1/leaky_relu",
          "rrdb_13/rdb1/conv2/leaky_relu",
          "rrdb_13/rdb1/conv3/leaky_relu",
          "rrdb_13/rdb1/conv4/leaky_relu"
        ],
        "attr": {
          "N": {
            "i": 5
          },
          "T": {
            "type": "DT_FLOAT"
          },
          "Tidx": {
            "type": "DT_INT32"
          }
        }
      },
      {
        "name": "rrdb_13/rdb1/conv5/conv",
        "op": "Conv2D",
        "input": [
          "rrdb_13/rdb1/concat4"
        ],
        "attr": {
          "kernel_size": {
            "list": {
              "i": [
                3,
                3
              ]
            }
          },
          "filters": {
            "i": 64
          },
          "strides": {
            "list": {
              "i": [
                1,
                1
              ]
            }
          },
          "padding": {
            "s": "same"
          },
          "data_format": {
            "s": "NHWC"
          }
        }
      },
      {
        "name": "rrdb_13/rdb1/add",
        "op": "Add",
        "input": [
          "rrdb_12/rdb1/add",
          "rrdb_13/rdb1/conv5/conv"
        ]
      },
      {
        "name": "rrdb_14/rdb1/conv1/conv",
        "op": "Conv2D",
        "input": [
          "rrdb_13/rdb1/add"
        ],
        "attr": {
          "kernel_size": {
            "list": {
              "i": [
                3,
                3
              ]
            }
          },
          "filters": {
            "i": 32
          },
          "strides": {
            "list": {
              "i": [
                1,
                1
              ]
            }
          },
          "padding": {
            "s": "same"
          },
          "data_format": {
            "s": "NHWC"
          }
        }
      },
      {
        "name": "rrdb_14/rdb1/conv1/leaky_relu",
        "op": "LeakyRelu",
        "input": [
          "rrdb_14/rdb1/conv1/conv"
        ],
        "attr": {
          "alpha": {
            "f": 0.2
          }
        }
      },
      {
        "name": "rrdb_14/rdb1/concat1",
        "op": "ConcatV2",
        "input": [
          "rrdb_13/rdb1/add",
          "rrdb_14/rdb1/conv1/leaky_relu"
        ],
        "attr": {
          "N": {
            "i": 2
          },
          "T": {
            "type": "DT_FLOAT"
          },
          "Tidx": {
            "type": "DT_INT32"
          }
        }
      },
      {
        "name": "rrdb_14/rdb1/conv2/conv",
        "op": "Conv2D",
        "input": [
          "rrdb_14/rdb1/concat1"
        ],
        "attr": {
          "kernel_size": {
            "list": {
              "i": [
                3,
                3
              ]
            }
          },
          "filters": {
            "i": 32
          },
          "strides": {
            "list": {
              "i": [
                1,
                1
              ]
            }
          },
          "padding": {
            "s": "same"
          },
          "data_format": {
            "s": "NHWC"
          }
        }
      },
      {
        "name": "rrdb_14/rdb1/conv2/leaky_relu",
        "op": "LeakyRelu",
        "input": [
          "rrdb_14/rdb1/conv2/conv"
        ],
        "attr": {
          "alpha": {
            "f": 0.2
          }
        }
      },
      {
        "name": "rrdb_14/rdb1/concat2",
        "op": "ConcatV2",
        "input": [
          "rrdb_13/rdb1/add",
          "rrdb_14/rdb1/conv1/leaky_relu",
          "rrdb_14/rdb1/conv2/leaky_relu"
        ],
        "attr": {
          "N": {
            "i": 3
          },
          "T": {
            "type": "DT_FLOAT"
          },
          "Tidx": {
            "type": "DT_INT32"
          }
        }
      },
      {
        "name": "rrdb_14/rdb1/conv3/conv",
        "op": "Conv2D",
        "input": [
          "rrdb_14/rdb1/concat2"
        ],
        "attr": {
          "kernel_size": {
            "list": {
              "i": [
                3,
                3
              ]
            }
          },
          "filters": {
            "i": 32
          },
          "strides": {
            "list": {
              "i": [
                1,
                1
              ]
            }
          },
          "padding": {
            "s": "same"
          },
          "data_format": {
            "s": "NHWC"
          }
        }
      },
      {
        "name": "rrdb_14/rdb1/conv3/leaky_relu",
        "op": "LeakyRelu",
        "input": [
          "rrdb_14/rdb1/conv3/conv"
        ],
        "attr": {
          "alpha": {
            "f": 0.2
          }
        }
      },
      {
        "name": "rrdb_14/rdb1/concat3",
        "op": "ConcatV2",
        "input": [
          "rrdb_13/rdb1/add",
          "rrdb_14/rdb1/conv1/leaky_relu",
          "rrdb_14/rdb1/conv2/leaky_relu",
          "rrdb_14/rdb1/conv3/leaky_relu"
        ],
        "attr": {
          "N": {
            "i": 4
          },
          "T": {
            "type": "DT_FLOAT"
          },
          "Tidx": {
            "type": "DT_INT32"
          }
        }
      },
      {
        "name": "rrdb_14/rdb1/conv4/conv",
        "op": "Conv2D",
        "input": [
          "rrdb_14/rdb1/concat3"
        ],
        "attr": {
          "kernel_size": {
            "list": {
              "i": [
                3,
                3
              ]
            }
          },
          "filters": {
            "i": 32
          },
          "strides": {
            "list": {
              "i": [
                1,
                1
              ]
            }
          },
          "padding": {
            "s": "same"
          },
          "data_format": {
            "s": "NHWC"
          }
        }
      },
      {
        "name": "rrdb_14/rdb1/conv4/leaky_relu",
        "op": "LeakyRelu",
        "input": [
          "rrdb_14/rdb1/conv4/conv"
        ],
        "attr": {
          "alpha": {
            "f": 0.2
          }
        }
      },
      {
        "name": "rrdb_14/rdb1/concat4",
        "op": "ConcatV2",
        "input": [
          "rrdb_13/rdb1/add",
          "rrdb_14/rdb1/conv1/leaky_relu",
          "rrdb_14/rdb1/conv2/leaky_relu",
          "rrdb_14/rdb1/conv3/leaky_relu",
          "rrdb_14/rdb1/conv4/leaky_relu"
        ],
        "attr": {
          "N": {
            "i": 5
          },
          "T": {
            "type": "DT_FLOAT"
          },
          "Tidx": {
            "type": "DT_INT32"
          }
        }
      },
      {
        "name": "rrdb_14/rdb1/conv5/conv",
        "op": "Conv2D",
        "input": [
          "rrdb_14/rdb1/concat4"
        ],
        "attr": {
          "kernel_size": {
            "list": {
              "i": [
                3,
                3
              ]
            }
          },
          "filters": {
            "i": 64
          },
          "strides": {
            "list": {
              "i": [
                1,
                1
              ]
            }
          },
          "padding": {
            "s": "same"
          },
          "data_format": {
            "s": "NHWC"
          }
        }
      },
      {
        "name": "rrdb_14/rdb1/add",
        "op": "Add",
        "input": [
          "rrdb_13/rdb1/add",
          "rrdb_14/rdb1/conv5/conv"
        ]
      },
      {
        "name": "rrdb_15/rdb1/conv1/conv",
        "op": "Conv2D",
        "input": [
          "rrdb_14/rdb1/add"
        ],
        "attr": {
          "kernel_size": {
            "list": {
              "i": [
                3,
                3
              ]
            }
          },
          "filters": {
            "i": 32
          },
          "strides": {
            "list": {
              "i": [
                1,
                1
              ]
            }
          },
          "padding": {
            "s": "same"
          },
          "data_format": {
            "s": "NHWC"
          }
        }
      },
      {
        "name": "rrdb_15/rdb1/conv1/leaky_relu",
        "op": "LeakyRelu",
        "input": [
          "rrdb_15/rdb1/conv1/conv"
        ],
        "attr": {
          "alpha": {
            "f": 0.2
          }
        }
      },
      {
        "name": "rrdb_15/rdb1/concat1",
        "op": "ConcatV2",
        "input": [
          "rrdb_14/rdb1/add",
          "rrdb_15/rdb1/conv1/leaky_relu"
        ],
        "attr": {
          "N": {
            "i": 2
          },
          "T": {
            "type": "DT_FLOAT"
          },
          "Tidx": {
            "type": "DT_INT32"
          }
        }
      },
      {
        "name": "rrdb_15/rdb1/conv2/conv",
        "op": "Conv2D",
        "input": [
          "rrdb_15/rdb1/concat1"
        ],
        "attr": {
          "kernel_size": {
            "list": {
              "i": [
                3,
                3
              ]
            }
          },
          "filters": {
            "i": 32
          },
          "strides": {
            "list": {
              "i": [
                1,
                1
              ]
            }
          },
          "padding": {
            "s": "same"
          },
          "data_format": {
            "s": "NHWC"
          }
        }
      },
      {
        "name": "rrdb_15/rdb1/conv2/leaky_relu",
        "op": "LeakyRelu",
        "input": [
          "rrdb_15/rdb1/conv2/conv"
        ],
        "attr": {
          "alpha": {
            "f": 0.2
          }
        }
      },
      {
        "name": "rrdb_15/rdb1/concat2",
        "op": "ConcatV2",
        "input": [
          "rrdb_14/rdb1/add",
          "rrdb_15/rdb1/conv1/leaky_relu",
          "rrdb_15/rdb1/conv2/leaky_relu"
        ],
        "attr": {
          "N": {
            "i": 3
          },
          "T": {
            "type": "DT_FLOAT"
          },
          "Tidx": {
            "type": "DT_INT32"
          }
        }
      },
      {
        "name": "rrdb_15/rdb1/conv3/conv",
        "op": "Conv2D",
        "input": [
          "rrdb_15/rdb1/concat2"
        ],
        "attr": {
          "kernel_size": {
            "list": {
              "i": [
                3,
                3
              ]
            }
          },
          "filters": {
            "i": 32
          },
          "strides": {
            "list": {
              "i": [
                1,
                1
              ]
            }
          },
          "padding": {
            "s": "same"
          },
          "data_format": {
            "s": "NHWC"
          }
        }
      },
      {
        "name": "rrdb_15/rdb1/conv3/leaky_relu",
        "op": "LeakyRelu",
        "input": [
          "rrdb_15/rdb1/conv3/conv"
        ],
        "attr": {
          "alpha": {
            "f": 0.2
          }
        }
      },
      {
        "name": "rrdb_15/rdb1/concat3",
        "op": "ConcatV2",
        "input": [
          "rrdb_14/rdb1/add",
          "rrdb_15/rdb1/conv1/leaky_relu",
          "rrdb_15/rdb1/conv2/leaky_relu",
          "rrdb_15/rdb1/conv3/leaky_relu"
        ],
        "attr": {
          "N": {
            "i": 4
          },
          "T": {
            "type": "DT_FLOAT"
          },
          "Tidx": {
            "type": "DT_INT32"
          }
        }
      },
      {
        "name": "rrdb_15/rdb1/conv4/conv",
        "op": "Conv2D",
        "input": [
          "rrdb_15/rdb1/concat3"
        ],
        "attr": {
          "kernel_size": {
            "list": {
              "i": [
                3,
                3
              ]
            }
          },
          "filters": {
            "i": 32
          },
          "strides": {
            "list": {
              "i": [
                1,
                1
              ]
            }
          },
          "padding": {
            "s": "same"
          },
          "data_format": {
            "s": "NHWC"
          }
        }
      },
      {
        "name": "rrdb_15/rdb1/conv4/leaky_relu",
        "op": "LeakyRelu",
        "input": [
          "rrdb_15/rdb1/conv4/conv"
        ],
        "attr": {
          "alpha": {
            "f": 0.2
          }
        }
      },
      {
        "name": "rrdb_15/rdb1/concat4",
        "op": "ConcatV2",
        "input": [
          "rrdb_14/rdb1/add",
          "rrdb_15/rdb1/conv1/leaky_relu",
          "rrdb_15/rdb1/conv2/leaky_relu",
          "rrdb_15/rdb1/conv3/leaky_relu",
          "rrdb_15/rdb1/conv4/leaky_relu"
        ],
        "attr": {
          "N": {
            "i": 5
          },
          "T": {
            "type": "DT_FLOAT"
          },
          "Tidx": {
            "type": "DT_INT32"
          }
        }
      },
      {
        "name": "rrdb_15/rdb1/conv5/conv",
        "op": "Conv2D",
        "input": [
          "rrdb_15/rdb1/concat4"
        ],
        "attr": {
          "kernel_size": {
            "list": {
              "i": [
                3,
                3
              ]
            }
          },
          "filters": {
            "i": 64
          },
          "strides": {
            "list": {
              "i": [
                1,
                1
              ]
            }
          },
          "padding": {
            "s": "same"
          },
          "data_format": {
            "s": "NHWC"
          }
        }
      },
      {
        "name": "rrdb_15/rdb1/add",
        "op": "Add",
        "input": [
          "rrdb_14/rdb1/add",
          "rrdb_15/rdb1/conv5/conv"
        ]
      },
      {
        "name": "rrdb_16/rdb1/conv1/conv",
        "op": "Conv2D",
        "input": [
          "rrdb_15/rdb1/add"
        ],
        "attr": {
          "kernel_size": {
            "list": {
              "i": [
                3,
                3
              ]
            }
          },
          "filters": {
            "i": 32
          },
          "strides": {
            "list": {
              "i": [
                1,
                1
              ]
            }
          },
          "padding": {
            "s": "same"
          },
          "data_format": {
            "s": "NHWC"
          }
        }
      },
      {
        "name": "rrdb_16/rdb1/conv1/leaky_relu",
        "op": "LeakyRelu",
        "input": [
          "rrdb_16/rdb1/conv1/conv"
        ],
        "attr": {
          "alpha": {
            "f": 0.2
          }
        }
      },
      {
        "name": "rrdb_16/rdb1/concat1",
        "op": "ConcatV2",
        "input": [
          "rrdb_15/rdb1/add",
          "rrdb_16/rdb1/conv1/leaky_relu"
        ],
        "attr": {
          "N": {
            "i": 2
          },
          "T": {
            "type": "DT_FLOAT"
          },
          "Tidx": {
            "type": "DT_INT32"
          }
        }
      },
      {
        "name": "rrdb_16/rdb1/conv2/conv",
        "op": "Conv2D",
        "input": [
          "rrdb_16/rdb1/concat1"
        ],
        "attr": {
          "kernel_size": {
            "list": {
              "i": [
                3,
                3
              ]
            }
          },
          "filters": {
            "i": 32
          },
          "strides": {
            "list": {
              "i": [
                1,
                1
              ]
            }
          },
          "padding": {
            "s": "same"
          },
          "data_format": {
            "s": "NHWC"
          }
        }
      },
      {
        "name": "rrdb_16/rdb1/conv2/leaky_relu",
        "op": "LeakyRelu",
        "input": [
          "rrdb_16/rdb1/conv2/conv"
        ],
        "attr": {
          "alpha": {
            "f": 0.2
          }
        }
      },
      {
        "name": "rrdb_16/rdb1/concat2",
        "op": "ConcatV2",
        "input": [
          "rrdb_15/rdb1/add",
          "rrdb_16/rdb1/conv1/leaky_relu",
          "rrdb_16/rdb1/conv2/leaky_relu"
        ],
        "attr": {
          "N": {
            "i": 3
          },
          "T": {
            "type": "DT_FLOAT"
          },
          "Tidx": {
            "type": "DT_INT32"
          }
        }
      },
      {
        "name": "rrdb_16/rdb1/conv3/conv",
        "op": "Conv2D",
        "input": [
          "rrdb_16/rdb1/concat2"
        ],
        "attr": {
          "kernel_size": {
            "list": {
              "i": [
                3,
                3
              ]
            }
          },
          "filters": {
            "i": 32
          },
          "strides": {
            "list": {
              "i": [
                1,
                1
              ]
            }
          },
          "padding": {
            "s": "same"
          },
          "data_format": {
            "s": "NHWC"
          }
        }
      },
      {
        "name": "rrdb_16/rdb1/conv3/leaky_relu",
        "op": "LeakyRelu",
        "input": [
          "rrdb_16/rdb1/conv3/conv"
        ],
        "attr": {
          "alpha": {
            "f": 0.2
          }
        }
      },
      {
        "name": "rrdb_16/rdb1/concat3",
        "op": "ConcatV2",
        "input": [
          "rrdb_15/rdb1/add",
          "rrdb_16/rdb1/conv1/leaky_relu",
          "rrdb_16/rdb1/conv2/leaky_relu",
          "rrdb_16/rdb1/conv3/leaky_relu"
        ],
        "attr": {
          "N": {
            "i": 4
          },
          "T": {
            "type": "DT_FLOAT"
          },
          "Tidx": {
            "type": "DT_INT32"
          }
        }
      },
      {
        "name": "rrdb_16/rdb1/conv4/conv",
        "op": "Conv2D",
        "input": [
          "rrdb_16/rdb1/concat3"
        ],
        "attr": {
          "kernel_size": {
            "list": {
              "i": [
                3,
                3
              ]
            }
          },
          "filters": {
            "i": 32
          },
          "strides": {
            "list": {
              "i": [
                1,
                1
              ]
            }
          },
          "padding": {
            "s": "same"
          },
          "data_format": {
            "s": "NHWC"
          }
        }
      },
      {
        "name": "rrdb_16/rdb1/conv4/leaky_relu",
        "op": "LeakyRelu",
        "input": [
          "rrdb_16/rdb1/conv4/conv"
        ],
        "attr": {
          "alpha": {
            "f": 0.2
          }
        }
      },
      {
        "name": "rrdb_16/rdb1/concat4",
        "op": "ConcatV2",
        "input": [
          "rrdb_15/rdb1/add",
          "rrdb_16/rdb1/conv1/leaky_relu",
          "rrdb_16/rdb1/conv2/leaky_relu",
          "rrdb_16/rdb1/conv3/leaky_relu",
          "rrdb_16/rdb1/conv4/leaky_relu"
        ],
        "attr": {
          "N": {
            "i": 5
          },
          "T": {
            "type": "DT_FLOAT"
          },
          "Tidx": {
            "type": "DT_INT32"
          }
        }
      },
      {
        "name": "rrdb_16/rdb1/conv5/conv",
        "op": "Conv2D",
        "input": [
          "rrdb_16/rdb1/concat4"
        ],
        "attr": {
          "kernel_size": {
            "list": {
              "i": [
                3,
                3
              ]
            }
          },
          "filters": {
            "i": 64
          },
          "strides": {
            "list": {
              "i": [
                1,
                1
              ]
            }
          },
          "padding": {
            "s": "same"
          },
          "data_format": {
            "s": "NHWC"
          }
        }
      },
      {
        "name": "rrdb_16/rdb1/add",
        "op": "Add",
        "input": [
          "rrdb_15/rdb1/add",
          "rrdb_16/rdb1/conv5/conv"
        ]
      },
      {
        "name": "rrdb_17/rdb1/conv1/conv",
        "op": "Conv2D",
        "input": [
          "rrdb_16/rdb1/add"
        ],
        "attr": {
          "kernel_size": {
            "list": {
              "i": [
                3,
                3
              ]
            }
          },
          "filters": {
            "i": 32
          },
          "strides": {
            "list": {
              "i": [
                1,
                1
              ]
            }
          },
          "padding": {
            "s": "same"
          },
          "data_format": {
            "s": "NHWC"
          }
        }
      },
      {
        "name": "rrdb_17/rdb1/conv1/leaky_relu",
        "op": "LeakyRelu",
        "input": [
          "rrdb_17/rdb1/conv1/conv"
        ],
        "attr": {
          "alpha": {
            "f": 0.2
          }
        }
      },
      {
        "name": "rrdb_17/rdb1/concat1",
        "op": "ConcatV2",
        "input": [
          "rrdb_16/rdb1/add",
          "rrdb_17/rdb1/conv1/leaky_relu"
        ],
        "attr": {
          "N": {
            "i": 2
          },
          "T": {
            "type": "DT_FLOAT"
          },
          "Tidx": {
            "type": "DT_INT32"
          }
        }
      },
      {
        "name": "rrdb_17/rdb1/conv2/conv",
        "op": "Conv2D",
        "input": [
          "rrdb_17/rdb1/concat1"
        ],
        "attr": {
          "kernel_size": {
            "list": {
              "i": [
                3,
                3
              ]
            }
          },
          "filters": {
            "i": 32
          },
          "strides": {
            "list": {
              "i": [
                1,
                1
              ]
            }
          },
          "padding": {
            "s": "same"
          },
          "data_format": {
            "s": "NHWC"
          }
        }
      },
      {
        "name": "rrdb_17/rdb1/conv2/leaky_relu",
        "op": "LeakyRelu",
        "input": [
          "rrdb_17/rdb1/conv2/conv"
        ],
        "attr": {
          "alpha": {
            "f": 0.2
          }
        }
      },
      {
        "name": "rrdb_17/rdb1/concat2",
        "op": "ConcatV2",
        "input": [
          "rrdb_16/rdb1/add",
          "rrdb_17/rdb1/conv1/leaky_relu",
          "rrdb_17/rdb1/conv2/leaky_relu"
        ],
        "attr": {
          "N": {
            "i": 3
          },
          "T": {
            "type": "DT_FLOAT"
          },
          "Tidx": {
            "type": "DT_INT32"
          }
        }
      },
      {
        "name": "rrdb_17/rdb1/conv3/conv",
        "op": "Conv2D",
        "input": [
          "rrdb_17/rdb1/concat2"
        ],
        "attr": {
          "kernel_size": {
            "list": {
              "i": [
                3,
                3
              ]
            }
          },
          "filters": {
            "i": 32
          },
          "strides": {
            "list": {
              "i": [
                1,
                1
              ]
            }
          },
          "padding": {
            "s": "same"
          },
          "data_format": {
            "s": "NHWC"
          }
        }
      },
      {
        "name": "rrdb_17/rdb1/conv3/leaky_relu",
        "op": "LeakyRelu",
        "input": [
          "rrdb_17/rdb1/conv3/conv"
        ],
        "attr": {
          "alpha": {
            "f": 0.2
          }
        }
      },
      {
        "name": "rrdb_17/rdb1/concat3",
        "op": "ConcatV2",
        "input": [
          "rrdb_16/rdb1/add",
          "rrdb_17/rdb1/conv1/leaky_relu",
          "rrdb_17/rdb1/conv2/leaky_relu",
          "rrdb_17/rdb1/conv3/leaky_relu"
        ],
        "attr": {
          "N": {
            "i": 4
          },
          "T": {
            "type": "DT_FLOAT"
          },
          "Tidx": {
            "type": "DT_INT32"
          }
        }
      },
      {
        "name": "rrdb_17/rdb1/conv4/conv",
        "op": "Conv2D",
        "input": [
          "rrdb_17/rdb1/concat3"
        ],
        "attr": {
          "kernel_size": {
            "list": {
              "i": [
                3,
                3
              ]
            }
          },
          "filters": {
            "i": 32
          },
          "strides": {
            "list": {
              "i": [
                1,
                1
              ]
            }
          },
          "padding": {
            "s": "same"
          },
          "data_format": {
            "s": "NHWC"
          }
        }
      },
      {
        "name": "rrdb_17/rdb1/conv4/leaky_relu",
        "op": "LeakyRelu",
        "input": [
          "rrdb_17/rdb1/conv4/conv"
        ],
        "attr": {
          "alpha": {
            "f": 0.2
          }
        }
      },
      {
        "name": "rrdb_17/rdb1/concat4",
        "op": "ConcatV2",
        "input": [
          "rrdb_16/rdb1/add",
          "rrdb_17/rdb1/conv1/leaky_relu",
          "rrdb_17/rdb1/conv2/leaky_relu",
          "rrdb_17/rdb1/conv3/leaky_relu",
          "rrdb_17/rdb1/conv4/leaky_relu"
        ],
        "attr": {
          "N": {
            "i": 5
          },
          "T": {
            "type": "DT_FLOAT"
          },
          "Tidx": {
            "type": "DT_INT32"
          }
        }
      },
      {
        "name": "rrdb_17/rdb1/conv5/conv",
        "op": "Conv2D",
        "input": [
          "rrdb_17/rdb1/concat4"
        ],
        "attr": {
          "kernel_size": {
            "list": {
              "i": [
                3,
                3
              ]
            }
          },
          "filters": {
            "i": 64
          },
          "strides": {
            "list": {
              "i": [
                1,
                1
              ]
            }
          },
          "padding": {
            "s": "same"
          },
          "data_format": {
            "s": "NHWC"
          }
        }
      },
      {
        "name": "rrdb_17/rdb1/add",
        "op": "Add",
        "input": [
          "rrdb_16/rdb1/add",
          "rrdb_17/rdb1/conv5/conv"
        ]
      },
      {
        "name": "rrdb_18/rdb1/conv1/conv",
        "op": "Conv2D",
        "input": [
          "rrdb_17/rdb1/add"
        ],
        "attr": {
          "kernel_size": {
            "list": {
              "i": [
                3,
                3
              ]
            }
          },
          "filters": {
            "i": 32
          },
          "strides": {
            "list": {
              "i": [
                1,
                1
              ]
            }
          },
          "padding": {
            "s": "same"
          },
          "data_format": {
            "s": "NHWC"
          }
        }
      },
      {
        "name": "rrdb_18/rdb1/conv1/leaky_relu",
        "op": "LeakyRelu",
        "input": [
          "rrdb_18/rdb1/conv1/conv"
        ],
        "attr": {
          "alpha": {
            "f": 0.2
          }
        }
      },
      {
        "name": "rrdb_18/rdb1/concat1",
        "op": "ConcatV2",
        "input": [
          "rrdb_17/rdb1/add",
          "rrdb_18/rdb1/conv1/leaky_relu"
        ],
        "attr": {
          "N": {
            "i": 2
          },
          "T": {
            "type": "DT_FLOAT"
          },
          "Tidx": {
            "type": "DT_INT32"
          }
        }
      },
      {
        "name": "rrdb_18/rdb1/conv2/conv",
        "op": "Conv2D",
        "input": [
          "rrdb_18/rdb1/concat1"
        ],
        "attr": {
          "kernel_size": {
            "list": {
              "i": [
                3,
                3
              ]
            }
          },
          "filters": {
            "i": 32
          },
          "strides": {
            "list": {
              "i": [
                1,
                1
              ]
            }
          },
          "padding": {
            "s": "same"
          },
          "data_format": {
            "s": "NHWC"
          }
        }
      },
      {
        "name": "rrdb_18/rdb1/conv2/leaky_relu",
        "op": "LeakyRelu",
        "input": [
          "rrdb_18/rdb1/conv2/conv"
        ],
        "attr": {
          "alpha": {
            "f": 0.2
          }
        }
      },
      {
        "name": "rrdb_18/rdb1/concat2",
        "op": "ConcatV2",
        "input": [
          "rrdb_17/rdb1/add",
          "rrdb_18/rdb1/conv1/leaky_relu",
          "rrdb_18/rdb1/conv2/leaky_relu"
        ],
        "attr": {
          "N": {
            "i": 3
          },
          "T": {
            "type": "DT_FLOAT"
          },
          "Tidx": {
            "type": "DT_INT32"
          }
        }
      },
      {
        "name": "rrdb_18/rdb1/conv3/conv",
        "op": "Conv2D",
        "input": [
          "rrdb_18/rdb1/concat2"
        ],
        "attr": {
          "kernel_size": {
            "list": {
              "i": [
                3,
                3
              ]
            }
          },
          "filters": {
            "i": 32
          },
          "strides": {
            "list": {
              "i": [
                1,
                1
              ]
            }
          },
          "padding": {
            "s": "same"
          },
          "data_format": {
            "s": "NHWC"
          }
        }
      },
      {
        "name": "rrdb_18/rdb1/conv3/leaky_relu",
        "op": "LeakyRelu",
        "input": [
          "rrdb_18/rdb1/conv3/conv"
        ],
        "attr": {
          "alpha": {
            "f": 0.2
          }
        }
      },
      {
        "name": "rrdb_18/rdb1/concat3",
        "op": "ConcatV2",
        "input": [
          "rrdb_17/rdb1/add",
          "rrdb_18/rdb1/conv1/leaky_relu",
          "rrdb_18/rdb1/conv2/leaky_relu",
          "rrdb_18/rdb1/conv3/leaky_relu"
        ],
        "attr": {
          "N": {
            "i": 4
          },
          "T": {
            "type": "DT_FLOAT"
          },
          "Tidx": {
            "type": "DT_INT32"
          }
        }
      },
      {
        "name": "rrdb_18/rdb1/conv4/conv",
        "op": "Conv2D",
        "input": [
          "rrdb_18/rdb1/concat3"
        ],
        "attr": {
          "kernel_size": {
            "list": {
              "i": [
                3,
                3
              ]
            }
          },
          "filters": {
            "i": 32
          },
          "strides": {
            "list": {
              "i": [
                1,
                1
              ]
            }
          },
          "padding": {
            "s": "same"
          },
          "data_format": {
            "s": "NHWC"
          }
        }
      },
      {
        "name": "rrdb_18/rdb1/conv4/leaky_relu",
        "op": "LeakyRelu",
        "input": [
          "rrdb_18/rdb1/conv4/conv"
        ],
        "attr": {
          "alpha": {
            "f": 0.2
          }
        }
      },
      {
        "name": "rrdb_18/rdb1/concat4",
        "op": "ConcatV2",
        "input": [
          "rrdb_17/rdb1/add",
          "rrdb_18/rdb1/conv1/leaky_relu",
          "rrdb_18/rdb1/conv2/leaky_relu",
          "rrdb_18/rdb1/conv3/leaky_relu",
          "rrdb_18/rdb1/conv4/leaky_relu"
        ],
        "attr": {
          "N": {
            "i": 5
          },
          "T": {
            "type": "DT_FLOAT"
          },
          "Tidx": {
            "type": "DT_INT32"
          }
        }
      },
      {
        "name": "rrdb_18/rdb1/conv5/conv",
        "op": "Conv2D",
        "input": [
          "rrdb_18/rdb1/concat4"
        ],
        "attr": {
          "kernel_size": {
            "list": {
              "i": [
                3,
                3
              ]
            }
          },
          "filters": {
            "i": 64
          },
          "strides": {
            "list": {
              "i": [
                1,
                1
              ]
            }
          },
          "padding": {
            "s": "same"
          },
          "data_format": {
            "s": "NHWC"
          }
        }
      },
      {
        "name": "rrdb_18/rdb1/add",
        "op": "Add",
        "input": [
          "rrdb_17/rdb1/add",
          "rrdb_18/rdb1/conv5/conv"
        ]
      },
      {
        "name": "rrdb_19/rdb1/conv1/conv",
        "op": "Conv2D",
        "input": [
          "rrdb_18/rdb1/add"
        ],
        "attr": {
          "kernel_size": {
            "list": {
              "i": [
                3,
                3
              ]
            }
          },
          "filters": {
            "i": 32
          },
          "strides": {
            "list": {
              "i": [
                1,
                1
              ]
            }
          },
          "padding": {
            "s": "same"
          },
          "data_format": {
            "s": "NHWC"
          }
        }
      },
      {
        "name": "rrdb_19/rdb1/conv1/leaky_relu",
        "op": "LeakyRelu",
        "input": [
          "rrdb_19/rdb1/conv1/conv"
        ],
        "attr": {
          "alpha": {
            "f": 0.2
          }
        }
      },
      {
        "name": "rrdb_19/rdb1/concat1",
        "op": "ConcatV2",
        "input": [
          "rrdb_18/rdb1/add",
          "rrdb_19/rdb1/conv1/leaky_relu"
        ],
        "attr": {
          "N": {
            "i": 2
          },
          "T": {
            "type": "DT_FLOAT"
          },
          "Tidx": {
            "type": "DT_INT32"
          }
        }
      },
      {
        "name": "rrdb_19/rdb1/conv2/conv",
        "op": "Conv2D",
        "input": [
          "rrdb_19/rdb1/concat1"
        ],
        "attr": {
          "kernel_size": {
            "list": {
              "i": [
                3,
                3
              ]
            }
          },
          "filters": {
            "i": 32
          },
          "strides": {
            "list": {
              "i": [
                1,
                1
              ]
            }
          },
          "padding": {
            "s": "same"
          },
          "data_format": {
            "s": "NHWC"
          }
        }
      },
      {
        "name": "rrdb_19/rdb1/conv2/leaky_relu",
        "op": "LeakyRelu",
        "input": [
          "rrdb_19/rdb1/conv2/conv"
        ],
        "attr": {
          "alpha": {
            "f": 0.2
          }
        }
      },
      {
        "name": "rrdb_19/rdb1/concat2",
        "op": "ConcatV2",
        "input": [
          "rrdb_18/rdb1/add",
          "rrdb_19/rdb1/conv1/leaky_relu",
          "rrdb_19/rdb1/conv2/leaky_relu"
        ],
        "attr": {
          "N": {
            "i": 3
          },
          "T": {
            "type": "DT_FLOAT"
          },
          "Tidx": {
            "type": "DT_INT32"
          }
        }
      },
      {
        "name": "rrdb_19/rdb1/conv3/conv",
        "op": "Conv2D",
        "input": [
          "rrdb_19/rdb1/concat2"
        ],
        "attr": {
          "kernel_size": {
            "list": {
              "i": [
                3,
                3
              ]
            }
          },
          "filters": {
            "i": 32
          },
          "strides": {
            "list": {
              "i": [
                1,
                1
              ]
            }
          },
          "padding": {
            "s": "same"
          },
          "data_format": {
            "s": "NHWC"
          }
        }
      },
      {
        "name": "rrdb_19/rdb1/conv3/leaky_relu",
        "op": "LeakyRelu",
        "input": [
          "rrdb_19/rdb1/conv3/conv"
        ],
        "attr": {
          "alpha": {
            "f": 0.2
          }
        }
      },
      {
        "name": "rrdb_19/rdb1/concat3",
        "op": "ConcatV2",
        "input": [
          "rrdb_18/rdb1/add",
          "rrdb_19/rdb1/conv1/leaky_relu",
          "rrdb_19/rdb1/conv2/leaky_relu",
          "rrdb_19/rdb1/conv3/leaky_relu"
        ],
        "attr": {
          "N": {
            "i": 4
          },
          "T": {
            "type": "DT_FLOAT"
          },
          "Tidx": {
            "type": "DT_INT32"
          }
        }
      },
      {
        "name": "rrdb_19/rdb1/conv4/conv",
        "op": "Conv2D",
        "input": [
          "rrdb_19/rdb1/concat3"
        ],
        "attr": {
          "kernel_size": {
            "list": {
              "i": [
                3,
                3
              ]
            }
          },
          "filters": {
            "i": 32
          },
          "strides": {
            "list": {
              "i": [
                1,
                1
              ]
            }
          },
          "padding": {
            "s": "same"
          },
          "data_format": {
            "s": "NHWC"
          }
        }
      },
      {
        "name": "rrdb_19/rdb1/conv4/leaky_relu",
        "op": "LeakyRelu",
        "input": [
          "rrdb_19/rdb1/conv4/conv"
        ],
        "attr": {
          "alpha": {
            "f": 0.2
          }
        }
      },
      {
        "name": "rrdb_19/rdb1/concat4",
        "op": "ConcatV2",
        "input": [
          "rrdb_18/rdb1/add",
          "rrdb_19/rdb1/conv1/leaky_relu",
          "rrdb_19/rdb1/conv2/leaky_relu",
          "rrdb_19/rdb1/conv3/leaky_relu",
          "rrdb_19/rdb1/conv4/leaky_relu"
        ],
        "attr": {
          "N": {
            "i": 5
          },
          "T": {
            "type": "DT_FLOAT"
          },
          "Tidx": {
            "type": "DT_INT32"
          }
        }
      },
      {
        "name": "rrdb_19/rdb1/conv5/conv",
        "op": "Conv2D",
        "input": [
          "rrdb_19/rdb1/concat4"
        ],
        "attr": {
          "kernel_size": {
            "list": {
              "i": [
                3,
                3
              ]
            }
          },
          "filters": {
            "i": 64
          },
          "strides": {
            "list": {
              "i": [
                1,
                1
              ]
            }
          },
          "padding": {
            "s": "same"
          },
          "data_format": {
            "s": "NHWC"
          }
        }
      },
      {
        "name": "rrdb_19/rdb1/add",
        "op": "Add",
        "input": [
          "rrdb_18/rdb1/add",
          "rrdb_19/rdb1/conv5/conv"
        ]
      },
      {
        "name": "rrdb_20/rdb1/conv1/conv",
        "op": "Conv2D",
        "input": [
          "rrdb_19/rdb1/add"
        ],
        "attr": {
          "kernel_size": {
            "list": {
              "i": [
                3,
                3
              ]
            }
          },
          "filters": {
            "i": 32
          },
          "strides": {
            "list": {
              "i": [
                1,
                1
              ]
            }
          },
          "padding": {
            "s": "same"
          },
          "data_format": {
            "s": "NHWC"
          }
        }
      },
      {
        "name": "rrdb_20/rdb1/conv1/leaky_relu",
        "op": "LeakyRelu",
        "input": [
          "rrdb_20/rdb1/conv1/conv"
        ],
        "attr": {
          "alpha": {
            "f": 0.2
          }
        }
      },
      {
        "name": "rrdb_20/rdb1/concat1",
        "op": "ConcatV2",
        "input": [
          "rrdb_19/rdb1/add",
          "rrdb_20/rdb1/conv1/leaky_relu"
        ],
        "attr": {
          "N": {
            "i": 2
          },
          "T": {
            "type": "DT_FLOAT"
          },
          "Tidx": {
            "type": "DT_INT32"
          }
        }
      },
      {
        "name": "rrdb_20/rdb1/conv2/conv",
        "op": "Conv2D",
        "input": [
          "rrdb_20/rdb1/concat1"
        ],
        "attr": {
          "kernel_size": {
            "list": {
              "i": [
                3,
                3
              ]
            }
          },
          "filters": {
            "i": 32
          },
          "strides": {
            "list": {
              "i": [
                1,
                1
              ]
            }
          },
          "padding": {
            "s": "same"
          },
          "data_format": {
            "s": "NHWC"
          }
        }
      },
      {
        "name": "rrdb_20/rdb1/conv2/leaky_relu",
        "op": "LeakyRelu",
        "input": [
          "rrdb_20/rdb1/conv2/conv"
        ],
        "attr": {
          "alpha": {
            "f": 0.2
          }
        }
      },
      {
        "name": "rrdb_20/rdb1/concat2",
        "op": "ConcatV2",
        "input": [
          "rrdb_19/rdb1/add",
          "rrdb_20/rdb1/conv1/leaky_relu",
          "rrdb_20/rdb1/conv2/leaky_relu"
        ],
        "attr": {
          "N": {
            "i": 3
          },
          "T": {
            "type": "DT_FLOAT"
          },
          "Tidx": {
            "type": "DT_INT32"
          }
        }
      },
      {
        "name": "rrdb_20/rdb1/conv3/conv",
        "op": "Conv2D",
        "input": [
          "rrdb_20/rdb1/concat2"
        ],
        "attr": {
          "kernel_size": {
            "list": {
              "i": [
                3,
                3
              ]
            }
          },
          "filters": {
            "i": 32
          },
          "strides": {
            "list": {
              "i": [
                1,
                1
              ]
            }
          },
          "padding": {
            "s": "same"
          },
          "data_format": {
            "s": "NHWC"
          }
        }
      },
      {
        "name": "rrdb_20/rdb1/conv3/leaky_relu",
        "op": "LeakyRelu",
        "input": [
          "rrdb_20/rdb1/conv3/conv"
        ],
        "attr": {
          "alpha": {
            "f": 0.2
          }
        }
      },
      {
        "name": "rrdb_20/rdb1/concat3",
        "op": "ConcatV2",
        "input": [
          "rrdb_19/rdb1/add",
          "rrdb_20/rdb1/conv1/leaky_relu",
          "rrdb_20/rdb1/conv2/leaky_relu",
          "rrdb_20/rdb1/conv3/leaky_relu"
        ],
        "attr": {
          "N": {
            "i": 4
          },
          "T": {
            "type": "DT_FLOAT"
          },
          "Tidx": {
            "type": "DT_INT32"
          }
        }
      },
      {
        "name": "rrdb_20/rdb1/conv4/conv",
        "op": "Conv2D",
        "input": [
          "rrdb_20/rdb1/concat3"
        ],
        "attr": {
          "kernel_size": {
            "list": {
              "i": [
                3,
                3
              ]
            }
          },
          "filters": {
            "i": 32
          },
          "strides": {
            "list": {
              "i": [
                1,
                1
              ]
            }
          },
          "padding": {
            "s": "same"
          },
          "data_format": {
            "s": "NHWC"
          }
        }
      },
      {
        "name": "rrdb_20/rdb1/conv4/leaky_relu",
        "op": "LeakyRelu",
        "input": [
          "rrdb_20/rdb1/conv4/conv"
        ],
        "attr": {
          "alpha": {
            "f": 0.2
          }
        }
      },
      {
        "name": "rrdb_20/rdb1/concat4",
        "op": "ConcatV2",
        "input": [
          "rrdb_19/rdb1/add",
          "rrdb_20/rdb1/conv1/leaky_relu",
          "rrdb_20/rdb1/conv2/leaky_relu",
          "rrdb_20/rdb1/conv3/leaky_relu",
          "rrdb_20/rdb1/conv4/leaky_relu"
        ],
        "attr": {
          "N": {
            "i": 5
          },
          "T": {
            "type": "DT_FLOAT"
          },
          "Tidx": {
            "type": "DT_INT32"
          }
        }
      },
      {
        "name": "rrdb_20/rdb1/conv5/conv",
        "op": "Conv2D",
        "input": [
          "rrdb_20/rdb1/concat4"
        ],
        "attr": {
          "kernel_size": {
            "list": {
              "i": [
                3,
                3
              ]
            }
          },
          "filters": {
            "i": 64
          },
          "strides": {
            "list": {
              "i": [
                1,
                1
              ]
            }
          },
          "padding": {
            "s": "same"
          },
          "data_format": {
            "s": "NHWC"
          }
        }
      },
      {
        "name": "rrdb_20/rdb1/add",
        "op": "Add",
        "input": [
          "rrdb_19/rdb1/add",
          "rrdb_20/rdb1/conv5/conv"
        ]
      },
      {
        "name": "rrdb_21/rdb1/conv1/conv",
        "op": "Conv2D",
        "input": [
          "rrdb_20/rdb1/add"
        ],
        "attr": {
          "kernel_size": {
            "list": {
              "i": [
                3,
                3
              ]
            }
          },
          "filters": {
            "i": 32
          },
          "strides": {
            "list": {
              "i": [
                1,
                1
              ]
            }
          },
          "padding": {
            "s": "same"
          },
          "data_format": {
            "s": "NHWC"
          }
        }
      },
      {
        "name": "rrdb_21/rdb1/conv1/leaky_relu",
        "op": "LeakyRelu",
        "input": [
          "rrdb_21/rdb1/conv1/conv"
        ],
        "attr": {
          "alpha": {
            "f": 0.2
          }
        }
      },
      {
        "name": "rrdb_21/rdb1/concat1",
        "op": "ConcatV2",
        "input": [
          "rrdb_20/rdb1/add",
          "rrdb_21/rdb1/conv1/leaky_relu"
        ],
        "attr": {
          "N": {
            "i": 2
          },
          "T": {
            "type": "DT_FLOAT"
          },
          "Tidx": {
            "type": "DT_INT32"
          }
        }
      },
      {
        "name": "rrdb_21/rdb1/conv2/conv",
        "op": "Conv2D",
        "input": [
          "rrdb_21/rdb1/concat1"
        ],
        "attr": {
          "kernel_size": {
            "list": {
              "i": [
                3,
                3
              ]
            }
          },
          "filters": {
            "i": 32
          },
          "strides": {
            "list": {
              "i": [
                1,
                1
              ]
            }
          },
          "padding": {
            "s": "same"
          },
          "data_format": {
            "s": "NHWC"
          }
        }
      },
      {
        "name": "rrdb_21/rdb1/conv2/leaky_relu",
        "op": "LeakyRelu",
        "input": [
          "rrdb_21/rdb1/conv2/conv"
        ],
        "attr": {
          "alpha": {
            "f": 0.2
          }
        }
      },
      {
        "name": "rrdb_21/rdb1/concat2",
        "op": "ConcatV2",
        "input": [
          "rrdb_20/rdb1/add",
          "rrdb_21/rdb1/conv1/leaky_relu",
          "rrdb_21/rdb1/conv2/leaky_relu"
        ],
        "attr": {
          "N": {
            "i": 3
          },
          "T": {
            "type": "DT_FLOAT"
          },
          "Tidx": {
            "type": "DT_INT32"
          }
        }
      },
      {
        "name": "rrdb_21/rdb1/conv3/conv",
        "op": "Conv2D",
        "input": [
          "rrdb_21/rdb1/concat2"
        ],
        "attr": {
          "kernel_size": {
            "list": {
              "i": [
                3,
                3
              ]
            }
          },
          "filters": {
            "i": 32
          },
          "strides": {
            "list": {
              "i": [
                1,
                1
              ]
            }
          },
          "padding": {
            "s": "same"
          },
          "data_format": {
            "s": "NHWC"
          }
        }
      },
      {
        "name": "rrdb_21/rdb1/conv3/leaky_relu",
        "op": "LeakyRelu",
        "input": [
          "rrdb_21/rdb1/conv3/conv"
        ],
        "attr": {
          "alpha": {
            "f": 0.2
          }
        }
      },
      {
        "name": "rrdb_21/rdb1/concat3",
        "op": "ConcatV2",
        "input": [
          "rrdb_20/rdb1/add",
          "rrdb_21/rdb1/conv1/leaky_relu",
          "rrdb_21/rdb1/conv2/leaky_relu",
          "rrdb_21/rdb1/conv3/leaky_relu"
        ],
        "attr": {
          "N": {
            "i": 4
          },
          "T": {
            "type": "DT_FLOAT"
          },
          "Tidx": {
            "type": "DT_INT32"
          }
        }
      },
      {
        "name": "rrdb_21/rdb1/conv4/conv",
        "op": "Conv2D",
        "input": [
          "rrdb_21/rdb1/concat3"
        ],
        "attr": {
          "kernel_size": {
            "list": {
              "i": [
                3,
                3
              ]
            }
          },
          "filters": {
            "i": 32
          },
          "strides": {
            "list": {
              "i": [
                1,
                1
              ]
            }
          },
          "padding": {
            "s": "same"
          },
          "data_format": {
            "s": "NHWC"
          }
        }
      },
      {
        "name": "rrdb_21/rdb1/conv4/leaky_relu",
        "op": "LeakyRelu",
        "input": [
          "rrdb_21/rdb1/conv4/conv"
        ],
        "attr": {
          "alpha": {
            "f": 0.2
          }
        }
      },
      {
        "name": "rrdb_21/rdb1/concat4",
        "op": "ConcatV2",
        "input": [
          "rrdb_20/rdb1/add",
          "rrdb_21/rdb1/conv1/leaky_relu",
          "rrdb_21/rdb1/conv2/leaky_relu",
          "rrdb_21/rdb1/conv3/leaky_relu",
          "rrdb_21/rdb1/conv4/leaky_relu"
        ],
        "attr": {
          "N": {
            "i": 5
          },
          "T": {
            "type": "DT_FLOAT"
          },
          "Tidx": {
            "type": "DT_INT32"
          }
        }
      },
      {
        "name": "rrdb_21/rdb1/conv5/conv",
        "op": "Conv2D",
        "input": [
          "rrdb_21/rdb1/concat4"
        ],
        "attr": {
          "kernel_size": {
            "list": {
              "i": [
                3,
                3
              ]
            }
          },
          "filters": {
            "i": 64
          },
          "strides": {
            "list": {
              "i": [
                1,
                1
              ]
            }
          },
          "padding": {
            "s": "same"
          },
          "data_format": {
            "s": "NHWC"
          }
        }
      },
      {
        "name": "rrdb_21/rdb1/add",
        "op": "Add",
        "input": [
          "rrdb_20/rdb1/add",
          "rrdb_21/rdb1/conv5/conv"
        ]
      },
      {
        "name": "rrdb_22/rdb1/conv1/conv",
        "op": "Conv2D",
        "input": [
          "rrdb_21/rdb1/add"
        ],
        "attr": {
          "kernel_size": {
            "list": {
              "i": [
                3,
                3
              ]
            }
          },
          "filters": {
            "i": 32
          },
          "strides": {
            "list": {
              "i": [
                1,
                1
              ]
            }
          },
          "padding": {
            "s": "same"
          },
          "data_format": {
            "s": "NHWC"
          }
        }
      },
      {
        "name": "rrdb_22/rdb1/conv1/leaky_relu",
        "op": "LeakyRelu",
        "input": [
          "rrdb_22/rdb1/conv1/conv"
        ],
        "attr": {
          "alpha": {
            "f": 0.2
          }
        }
      },
      {
        "name": "rrdb_22/rdb1/concat1",
        "op": "ConcatV2",
        "input": [
          "rrdb_21/rdb1/add",
          "rrdb_22/rdb1/conv1/leaky_relu"
        ],
        "attr": {
          "N": {
            "i": 2
          },
          "T": {
            "type": "DT_FLOAT"
          },
          "Tidx": {
            "type": "DT_INT32"
          }
        }
      },
      {
        "name": "rrdb_22/rdb1/conv2/conv",
        "op": "Conv2D",
        "input": [
          "rrdb_22/rdb1/concat1"
        ],
        "attr": {
          "kernel_size": {
            "list": {
              "i": [
                3,
                3
              ]
            }
          },
          "filters": {
            "i": 32
          },
          "strides": {
            "list": {
              "i": [
                1,
                1
              ]
            }
          },
          "padding": {
            "s": "same"
          },
          "data_format": {
            "s": "NHWC"
          }
        }
      },
      {
        "name": "rrdb_22/rdb1/conv2/leaky_relu",
        "op": "LeakyRelu",
        "input": [
          "rrdb_22/rdb1/conv2/conv"
        ],
        "attr": {
          "alpha": {
            "f": 0.2
          }
        }
      },
      {
        "name": "rrdb_22/rdb1/concat2",
        "op": "ConcatV2",
        "input": [
          "rrdb_21/rdb1/add",
          "rrdb_22/rdb1/conv1/leaky_relu",
          "rrdb_22/rdb1/conv2/leaky_relu"
        ],
        "attr": {
          "N": {
            "i": 3
          },
          "T": {
            "type": "DT_FLOAT"
          },
          "Tidx": {
            "type": "DT_INT32"
          }
        }
      },
      {
        "name": "rrdb_22/rdb1/conv3/conv",
        "op": "Conv2D",
        "input": [
          "rrdb_22/rdb1/concat2"
        ],
        "attr": {
          "kernel_size": {
            "list": {
              "i": [
                3,
                3
              ]
            }
          },
          "filters": {
            "i": 32
          },
          "strides": {
            "list": {
              "i": [
                1,
                1
              ]
            }
          },
          "padding": {
            "s": "same"
          },
          "data_format": {
            "s": "NHWC"
          }
        }
      },
      {
        "name": "rrdb_22/rdb1/conv3/leaky_relu",
        "op": "LeakyRelu",
        "input": [
          "rrdb_22/rdb1/conv3/conv"
        ],
        "attr": {
          "alpha": {
            "f": 0.2
          }
        }
      },
      {
        "name": "rrdb_22/rdb1/concat3",
        "op": "ConcatV2",
        "input": [
          "rrdb_21/rdb1/add",
          "rrdb_22/rdb1/conv1/leaky_relu",
          "rrdb_22/rdb1/conv2/leaky_relu",
          "rrdb_22/rdb1/conv3/leaky_relu"
        ],
        "attr": {
          "N": {
            "i": 4
          },
          "T": {
            "type": "DT_FLOAT"
          },
          "Tidx": {
            "type": "DT_INT32"
          }
        }
      },
      {
        "name": "rrdb_22/rdb1/conv4/conv",
        "op": "Conv2D",
        "input": [
          "rrdb_22/rdb1/concat3"
        ],
        "attr": {
          "kernel_size": {
            "list": {
              "i": [
                3,
                3
              ]
            }
          },
          "filters": {
            "i": 32
          },
          "strides": {
            "list": {
              "i": [
                1,
                1
              ]
            }
          },
          "padding": {
            "s": "same"
          },
          "data_format": {
            "s": "NHWC"
          }
        }
      },
      {
        "name": "rrdb_22/rdb1/conv4/leaky_relu",
        "op": "LeakyRelu",
        "input": [
          "rrdb_22/rdb1/conv4/conv"
        ],
        "attr": {
          "alpha": {
            "f": 0.2
          }
        }
      },
      {
        "name": "rrdb_22/rdb1/concat4",
        "op": "ConcatV2",
        "input": [
          "rrdb_21/rdb1/add",
          "rrdb_22/rdb1/conv1/leaky_relu",
          "rrdb_22/rdb1/conv2/leaky_relu",
          "rrdb_22/rdb1/conv3/leaky_relu",
          "rrdb_22/rdb1/conv4/leaky_relu"
        ],
        "attr": {
          "N": {
            "i": 5
          },
          "T": {
            "type": "DT_FLOAT"
          },
          "Tidx": {
            "type": "DT_INT32"
          }
        }
      },
      {
        "name": "rrdb_22/rdb1/conv5/conv",
        "op": "Conv2D",
        "input": [
          "rrdb_22/rdb1/concat4"
        ],
        "attr": {
          "kernel_size": {
            "list": {
              "i": [
                3,
                3
              ]
            }
          },
          "filters": {
            "i": 64
          },
          "strides": {
            "list": {
              "i": [
                1,
                1
              ]
            }
          },
          "padding": {
            "s": "same"
          },
          "data_format": {
            "s": "NHWC"
          }
        }
      },
      {
        "name": "rrdb_22/rdb1/add",
        "op": "Add",
        "input": [
          "rrdb_21/rdb1/add",
          "rrdb_22/rdb1/conv5/conv"
        ]
      },
      {
        "name": "conv_body/conv",
        "op": "Conv2D",
        "input": [
          "rrdb_22/rdb1/add"
        ],
        "attr": {
          "kernel_size": {
            "list": {
              "i": [
                3,
                3
              ]
            }
          },
          "filters": {
            "i": 64
          },
          "strides": {
            "list": {
              "i": [
                1,
                1
              ]
            }
          },
          "padding": {
            "s": "same"
          },
          "data_format": {
            "s": "NHWC"
          }
        }
      },
      {
        "name": "body_add",
        "op": "Add",
        "input": [
          "conv_first/conv",
          "conv_body/conv"
        ]
      },
      {
        "name": "up1/upsample",
        "op": "ResizeBilinear",
        "input": [
          "body_add"
        ],
        "attr": {
          "align_corners": {
            "b": false
          },
          "half_pixel_centers": {
            "b": true
          }
        }
      },
      {
        "name": "conv_up1/conv",
        "op": "Conv2D",
        "input": [
          "up1/upsample"
        ],
        "attr": {
          "kernel_size": {
            "list": {
              "i": [
                3,
                3
              ]
            }
          },
          "filters": {
            "i": 64
          },
          "strides": {
            "list": {
              "i": [
                1,
                1
              ]
            }
          },
          "padding": {
            "s": "same"
          },
          "data_format": {
            "s": "NHWC"
          }
        }
      },
      {
        "name": "conv_up1/leaky_relu",
        "op": "LeakyRelu",
        "input": [
          "conv_up1/conv"
        ],
        "attr": {
          "alpha": {
            "f": 0.2
          }
        }
      },
      {
        "name": "up2/upsample",
        "op": "ResizeBilinear",
        "input": [
          "conv_up1/leaky_relu"
        ],
        "attr": {
          "align_corners": {
            "b": false
          },
          "half_pixel_centers": {
            "b": true
          }
        }
      },
      {
        "name": "conv_up2/conv",
        "op": "Conv2D",
        "input": [
          "up2/upsample"
        ],
        "attr": {
          "kernel_size": {
            "list": {
              "i": [
                3,
                3
              ]
            }
          },
          "filters": {
            "i": 64
          },
          "strides": {
            "list": {
              "i": [
                1,
                1
              ]
            }
          },
          "padding": {
            "s": "same"
          },
          "data_format": {
            "s": "NHWC"
          }
        }
      },
      {
        "name": "conv_up2/leaky_relu",
        "op": "LeakyRelu",
        "input": [
          "conv_up2/conv"
        ],
        "attr": {
          "alpha": {
            "f": 0.2
          }
        }
      },
      {
        "name": "conv_hr/conv",
        "op": "Conv2D",
        "input": [
          "conv_up2/leaky_relu"
        ],
        "attr": {
          "kernel_size": {
            "list": {
              "i": [
                3,
                3
              ]
            }
          },
          "filters": {
            "i": 64
          },
          "strides": {
            "list": {
              "i": [
                1,
                1
              ]
            }
          },
          "padding": {
            "s": "same"
          },
          "data_format": {
            "s": "NHWC"
          }
        }
      },
      {
        "name": "conv_hr/leaky_relu",
        "op": "LeakyRelu",
        "input": [
          "conv_hr/conv"
        ],
        "attr": {
          "alpha": {
            "f": 0.2
          }
        }
      },
      {
        "name": "conv_last/conv",
        "op": "Conv2D",
        "input": [
          "conv_hr/leaky_relu"
        ],
        "attr": {
          "kernel_size": {
            "list": {
              "i": [
                3,
                3
              ]
            }
          },
          "filters": {
            "i": 3
          },
          "strides": {
            "list": {
              "i": [
                1,
                1
              ]
            }
          },
          "padding": {
            "s": "same"
          },
          "data_format": {
            "s": "NHWC"
          }
        }
      }
    ],
    "library": {},
    "versions": {
      "producer": 1
    }
  },
  "weightsManifest": [
    {
      "paths": [
        "group1-shard1of1.bin"
      ],
      "weights": [
        {
          "name": "conv_first.weight",
          "shape": [
            64,
            3,
            3,
            3
          ],
          "dtype": "float32"
        },
        {
          "name": "conv_first.bias",
          "shape": [
            64
          ],
          "dtype": "float32"
        },
        {
          "name": "body.0.rdb1.conv1.weight",
          "shape": [
            32,
            64,
            3,
            3
          ],
          "dtype": "float32"
        },
        {
          "name": "body.0.rdb1.conv1.bias",
          "shape": [
            32
          ],
          "dtype": "float32"
        },
        {
          "name": "body.0.rdb1.conv2.weight",
          "shape": [
            32,
            96,
            3,
            3
          ],
          "dtype": "float32"
        },
        {
          "name": "body.0.rdb1.conv2.bias",
          "shape": [
            32
          ],
          "dtype": "float32"
        },
        {
          "name": "body.0.rdb1.conv3.weight",
          "shape": [
            32,
            128,
            3,
            3
          ],
          "dtype": "float32"
        },
        {
          "name": "body.0.rdb1.conv3.bias",
          "shape": [
            32
          ],
          "dtype": "float32"
        },
        {
          "name": "body.0.rdb1.conv4.weight",
          "shape": [
            32,
            160,
            3,
            3
          ],
          "dtype": "float32"
        },
        {
          "name": "body.0.rdb1.conv4.bias",
          "shape": [
            32
          ],
          "dtype": "float32"
        },
        {
          "name": "body.0.rdb1.conv5.weight",
          "shape": [
            64,
            192,
            3,
            3
          ],
          "dtype": "float32"
        },
        {
          "name": "body.0.rdb1.conv5.bias",
          "shape": [
            64
          ],
          "dtype": "float32"
        },
        {
          "name": "body.0.rdb2.conv1.weight",
          "shape": [
            32,
            64,
            3,
            3
          ],
          "dtype": "float32"
…
          "shape": [
            32,
            96,
            3,
            3
          ],
          "dtype": "float32"
        },
        {
          "name": "body.13.rdb2.conv2.bias",
          "shape": [
            32
          ],
          "dtype": "float32"
        },
        {
          "name": "body.13.rdb2.conv3.weight",
          "shape": [
            32,
            128,
            3,
            3
          ],
          "dtype": "float32"
        },
        {
          "name": "body.13.rdb2.conv3.bias",
          "shape": [
            32
          ],
          "dtype": "float32"
        },
        {
          "name": "body.13.rdb2.conv4.weight",
          "shape": [
            32,
            160,
            3,
            3
          ],
          "dtype": "float32"
        },
        {
          "name": "body.13.rdb2.conv4.bias",
          "shape": [
            32
          ],
          "dtype": "float32"
        },
        {
          "name": "body.13.rdb2.conv5.weight",
          "shape": [
            64,
            192,
            3,
            3
          ],
          "dtype": "float32"
        },
        {
          "name": "body.13.rdb2.conv5.bias",
          "shape": [
            64
          ],
          "dtype": "float32"
        },
        {
          "name": "body.13.rdb3.conv1.weight",
          "shape": [
            32,
            64,
            3,
            3
          ],
          "dtype": "float32"
        },
        {
          "name": "body.13.rdb3.conv1.bias",
          "shape": [
            32
          ],
          "dtype": "float32"
        },
        {
          "name": "body.13.rdb3.conv2.weight",
          "shape": [
            32,
            96,
            3,
            3
          ],
          "dtype": "float32"
        },
        {
          "name": "body.13.rdb3.conv2.bias",
          "shape": [
            32
          ],
          "dtype": "float32"
        },
        {
          "name": "body.13.rdb3.conv3.weight",
          "shape": [
            32,
            128,
            3,
            3
          ],
          "dtype": "float32"
        },
        {
          "name": "body.13.rdb3.conv3.bias",
          "shape": [
            32
          ],
          "dtype": "float32"
        },
        {
          "name": "body.13.rdb3.conv4.weight",
          "shape": [
            32,
            160,
            3,
            3
          ],
          "dtype": "float32"
        },
        {
          "name": "body.13.rdb3.conv4.bias",
          "shape": [
            32
          ],
          "dtype": "float32"
        },
        {
          "name": "body.13.rdb3.conv5.weight",
          "shape": [
            64,
            192,
            3,
            3
          ],
          "dtype": "float32"
        },
        {
          "name": "body.13.rdb3.conv5.bias",
          "shape": [
            64
          ],
          "dtype": "float32"
        },
        {
          "name": "body.14.rdb1.conv1.weight",
          "shape": [
            32,
            64,
            3,
            3
          ],
          "dtype": "float32"
        },
        {
          "name": "body.14.rdb1.conv1.bias",
          "shape": [
            32
          ],
          "dtype": "float32"
        },
        {
          "name": "body.14.rdb1.conv2.weight",
          "shape": [
            32,
            96,
            3,
            3
          ],
          "dtype": "float32"
        },
        {
          "name": "body.14.rdb1.conv2.bias",
          "shape": [
            32
          ],
          "dtype": "float32"
        },
        {
          "name": "body.14.rdb1.conv3.weight",
          "shape": [
            32,
            128,
            3,
            3
          ],
          "dtype": "float32"
        },
        {
          "name": "body.14.rdb1.conv3.bias",
          "shape": [
            32
          ],
          "dtype": "float32"
        },
        {
          "name": "body.14.rdb1.conv4.weight",
          "shape": [
            32,
            160,
            3,
            3
          ],
          "dtype": "float32"
        },
        {
          "name": "body.14.rdb1.conv4.bias",
          "shape": [
            32
          ],
          "dtype": "float32"
        },
        {
          "name": "body.14.rdb1.conv5.weight",
          "shape": [
            64,
            192,
            3,
            3
          ],
          "dtype": "float32"
        },
        {
          "name": "body.14.rdb1.conv5.bias",
          "shape": [
            64
          ],
          "dtype": "float32"
        },
        {
          "name": "body.14.rdb2.conv1.weight",
          "shape": [
            32,
            64,
            3,
            3
          ],
          "dtype": "float32"
        },
        {
          "name": "body.14.rdb2.conv1.bias",
          "shape": [
            32
          ],
          "dtype": "float32"
        },
        {
          "name": "body.14.rdb2.conv2.weight",
          "shape": [
            32,
            96,
            3,
            3
          ],
          "dtype": "float32"
        },
        {
          "name": "body.14.rdb2.conv2.bias",
          "shape": [
            32
          ],
          "dtype": "float32"
        },
        {
          "name": "body.14.rdb2.conv3.weight",
          "shape": [
            32,
            128,
            3,
            3
          ],
          "dtype": "float32"
        },
        {
          "name": "body.14.rdb2.conv3.bias",
          "shape": [
            32
          ],
          "dtype": "float32"
        },
        {
          "name": "body.14.rdb2.conv4.weight",
          "shape": [
            32,
            160,
            3,
            3
          ],
          "dtype": "float32"
        },
        {
          "name": "body.14.rdb2.conv4.bias",
          "shape": [
            32
          ],
          "dtype": "float32"
        },
        {
          "name": "body.14.rdb2.conv5.weight",
          "shape": [
            64,
            192,
            3,
            3
          ],
          "dtype": "float32"
        },
        {
          "name": "body.14.rdb2.conv5.bias",
          "shape": [
            64
          ],
          "dtype": "float32"
        },
        {
          "name": "body.14.rdb3.conv1.weight",
          "shape": [
            32,
            64,
            3,
            3
          ],
          "dtype": "float32"
        },
        {
          "name": "body.14.rdb3.conv1.bias",
          "shape": [
            32
          ],
          "dtype": "float32"
        },
        {
          "name": "body.14.rdb3.conv2.weight",
          "shape": [
            32,
            96,
            3,
            3
          ],
          "dtype": "float32"
        },
        {
          "name": "body.14.rdb3.conv2.bias",
          "shape": [
            32
          ],
          "dtype": "float32"
        },
        {
          "name": "body.14.rdb3.conv3.weight",
          "shape": [
            32,
            128,
            3,
            3
          ],
          "dtype": "float32"
        },
        {
          "name": "body.14.rdb3.conv3.bias",
          "shape": [
            32
          ],
          "dtype": "float32"
        },
        {
          "name": "body.14.rdb3.conv4.weight",
          "shape": [
            32,
            160,
            3,
            3
          ],
          "dtype": "float32"
        },
        {
          "name": "body.14.rdb3.conv4.bias",
          "shape": [
            32
          ],
          "dtype": "float32"
        },
        {
          "name": "body.14.rdb3.conv5.weight",
          "shape": [
            64,
            192,
            3,
            3
          ],
          "dtype": "float32"
        },
        {
          "name": "body.14.rdb3.conv5.bias",
          "shape": [
            64
          ],
          "dtype": "float32"
        },
        {
          "name": "body.15.rdb1.conv1.weight",
          "shape": [
            32,
            64,
            3,
            3
          ],
          "dtype": "float32"
        },
        {
          "name": "body.15.rdb1.conv1.bias",
          "shape": [
            32
          ],
          "dtype": "float32"
        },
        {
          "name": "body.15.rdb1.conv2.weight",
          "shape": [
            32,
            96,
            3,
            3
          ],
          "dtype": "float32"
        },
        {
          "name": "body.15.rdb1.conv2.bias",
          "shape": [
            32
          ],
          "dtype": "float32"
        },
        {
          "name": "body.15.rdb1.conv3.weight",
          "shape": [
            32,
            128,
            3,
            3
          ],
          "dtype": "float32"
        },
        {
          "name": "body.15.rdb1.conv3.bias",
          "shape": [
            32
          ],
          "dtype": "float32"
        },
        {
          "name": "body.15.rdb1.conv4.weight",
          "shape": [
            32,
            160,
            3,
            3
          ],
          "dtype": "float32"
        },
        {
          "name": "body.15.rdb1.conv4.bias",
          "shape": [
            32
          ],
          "dtype": "float32"
        },
        {
          "name": "body.15.rdb1.conv5.weight",
          "shape": [
            64,
            192,
            3,
            3
          ],
          "dtype": "float32"
        },
        {
          "name": "body.15.rdb1.conv5.bias",
          "shape": [
            64
          ],
          "dtype": "float32"
        },
        {
          "name": "body.15.rdb2.conv1.weight",
          "shape": [
            32,
            64,
            3,
            3
          ],
          "dtype": "float32"
        },
        {
          "name": "body.15.rdb2.conv1.bias",
          "shape": [
            32
          ],
          "dtype": "float32"
        },
        {
          "name": "body.15.rdb2.conv2.weight",
          "shape": [
            32,
            96,
            3,
            3
          ],
          "dtype": "float32"
        },
        {
          "name": "body.15.rdb2.conv2.bias",
          "shape": [
            32
          ],
          "dtype": "float32"
        },
        {
          "name": "body.15.rdb2.conv3.weight",
          "shape": [
            32,
            128,
            3,
            3
          ],
          "dtype": "float32"
        },
        {
          "name": "body.15.rdb2.conv3.bias",
          "shape": [
            32
          ],
          "dtype": "float32"
        },
        {
          "name": "body.15.rdb2.conv4.weight",
          "shape": [
            32,
            160,
            3,
            3
          ],
          "dtype": "float32"
        },
        {
          "name": "body.15.rdb2.conv4.bias",
          "shape": [
            32
          ],
          "dtype": "float32"
        },
        {
          "name": "body.15.rdb2.conv5.weight",
          "shape": [
            64,
            192,
            3,
            3
          ],
          "dtype": "float32"
        },
        {
          "name": "body.15.rdb2.conv5.bias",
          "shape": [
            64
          ],
          "dtype": "float32"
        },
        {
          "name": "body.15.rdb3.conv1.weight",
          "shape": [
            32,
            64,
            3,
            3
          ],
          "dtype": "float32"
        },
        {
          "name": "body.15.rdb3.conv1.bias",
          "shape": [
            32
          ],
          "dtype": "float32"
        },
        {
          "name": "body.15.rdb3.conv2.weight",
          "shape": [
            32,
            96,
            3,
            3
          ],
          "dtype": "float32"
        },
        {
          "name": "body.15.rdb3.conv2.bias",
          "shape": [
            32
          ],
          "dtype": "float32"
        },
        {
          "name": "body.15.rdb3.conv3.weight",
          "shape": [
            32,
            128,
            3,
            3
          ],
          "dtype": "float32"
        },
        {
          "name": "body.15.rdb3.conv3.bias",
          "shape": [
            32
          ],
          "dtype": "float32"
        },
        {
          "name": "body.15.rdb3.conv4.weight",
          "shape": [
            32,
            160,
            3,
            3
          ],
          "dtype": "float32"
        },
        {
          "name": "body.15.rdb3.conv4.bias",
          "shape": [
            32
          ],
          "dtype": "float32"
        },
        {
          "name": "body.15.rdb3.conv5.weight",
          "shape": [
            64,
            192,
            3,
            3
          ],
          "dtype": "float32"
        },
        {
          "name": "body.15.rdb3.conv5.bias",
          "shape": [
            64
          ],
          "dtype": "float32"
        },
        {
          "name": "body.16.rdb1.conv1.weight",
          "shape": [
            32,
            64,
            3,
            3
          ],
          "dtype": "float32"
        },
        {
          "name": "body.16.rdb1.conv1.bias",
          "shape": [
            32
          ],
          "dtype": "float32"
        },
        {
          "name": "body.16.rdb1.conv2.weight",
          "shape": [
            32,
            96,
            3,
            3
          ],
          "dtype": "float32"
        },
        {
          "name": "body.16.rdb1.conv2.bias",
          "shape": [
            32
          ],
          "dtype": "float32"
        },
        {
          "name": "body.16.rdb1.conv3.weight",
          "shape": [
            32,
            128,
            3,
            3
          ],
          "dtype": "float32"
        },
        {
          "name": "body.16.rdb1.conv3.bias",
          "shape": [
            32
          ],
          "dtype": "float32"
        },
        {
          "name": "body.16.rdb1.conv4.weight",
          "shape": [
            32,
            160,
            3,
            3
          ],
          "dtype": "float32"
        },
        {
          "name": "body.16.rdb1.conv4.bias",
          "shape": [
            32
          ],
          "dtype": "float32"
        },
        {
          "name": "body.16.rdb1.conv5.weight",
          "shape": [
            64,
            192,
            3,
            3
          ],
          "dtype": "float32"
        },
        {
          "name": "body.16.rdb1.conv5.bias",
          "shape": [
            64
          ],
          "dtype": "float32"
        },
        {
          "name": "body.16.rdb2.conv1.weight",
          "shape": [
            32,
            64,
            3,
            3
          ],
          "dtype": "float32"
        },
        {
          "name": "body.16.rdb2.conv1.bias",
          "shape": [
            32
          ],
          "dtype": "float32"
        },
        {
          "name": "body.16.rdb2.conv2.weight",
          "shape": [
            32,
            96,
            3,
            3
          ],
          "dtype": "float32"
        },
        {
          "name": "body.16.rdb2.conv2.bias",
          "shape": [
            32
          ],
          "dtype": "float32"
        },
        {
          "name": "body.16.rdb2.conv3.weight",
          "shape": [
            32,
            128,
            3,
            3
          ],
          "dtype": "float32"
        },
        {
          "name": "body.16.rdb2.conv3.bias",
          "shape": [
            32
          ],
          "dtype": "float32"
        },
        {
          "name": "body.16.rdb2.conv4.weight",
          "shape": [
            32,
            160,
            3,
            3
          ],
          "dtype": "float32"
        },
        {
          "name": "body.16.rdb2.conv4.bias",
          "shape": [
            32
          ],
          "dtype": "float32"
        },
        {
          "name": "body.16.rdb2.conv5.weight",
          "shape": [
            64,
            192,
            3,
            3
          ],
          "dtype": "float32"
        },
        {
          "name": "body.16.rdb2.conv5.bias",
          "shape": [
            64
          ],
          "dtype": "float32"
        },
        {
          "name": "body.16.rdb3.conv1.weight",
          "shape": [
            32,
            64,
            3,
            3
          ],
          "dtype": "float32"
        },
        {
          "name": "body.16.rdb3.conv1.bias",
          "shape": [
            32
          ],
          "dtype": "float32"
        },
        {
          "name": "body.16.rdb3.conv2.weight",
          "shape": [
            32,
            96,
            3,
            3
          ],
          "dtype": "float32"
        },
        {
          "name": "body.16.rdb3.conv2.bias",
          "shape": [
            32
          ],
          "dtype": "float32"
        },
        {
          "name": "body.16.rdb3.conv3.weight",
          "shape": [
            32,
            128,
            3,
            3
          ],
          "dtype": "float32"
        },
        {
          "name": "body.16.rdb3.conv3.bias",
          "shape": [
            32
          ],
          "dtype": "float32"
        },
        {
          "name": "body.16.rdb3.conv4.weight",
          "shape": [
            32,
            160,
            3,
            3
          ],
          "dtype": "float32"
        },
        {
          "name": "body.16.rdb3.conv4.bias",
          "shape": [
            32
          ],
          "dtype": "float32"
        },
        {
          "name": "body.16.rdb3.conv5.weight",
          "shape": [
            64,
            192,
            3,
            3
          ],
          "dtype": "float32"
        },
        {
          "name": "body.16.rdb3.conv5.bias",
          "shape": [
            64
          ],
          "dtype": "float32"
        },
        {
          "name": "body.17.rdb1.conv1.weight",
          "shape": [
            32,
            64,
            3,
            3
          ],
          "dtype": "float32"
        },
        {
          "name": "body.17.rdb1.conv1.bias",
          "shape": [
            32
          ],
          "dtype": "float32"
        },
        {
          "name": "body.17.rdb1.conv2.weight",
          "shape": [
            32,
            96,
            3,
            3
          ],
          "dtype": "float32"
        },
        {
          "name": "body.17.rdb1.conv2.bias",
          "shape": [
            32
          ],
          "dtype": "float32"
        },
        {
          "name": "body.17.rdb1.conv3.weight",
          "shape": [
            32,
            128,
            3,
            3
          ],
          "dtype": "float32"
        },
        {
          "name": "body.17.rdb1.conv3.bias",
          "shape": [
            32
          ],
          "dtype": "float32"
        },
        {
          "name": "body.17.rdb1.conv4.weight",
          "shape": [
            32,
            160,
            3,
            3
          ],
          "dtype": "float32"
        },
        {
          "name": "body.17.rdb1.conv4.bias",
          "shape": [
            32
          ],
          "dtype": "float32"
        },
        {
          "name": "body.17.rdb1.conv5.weight",
          "shape": [
            64,
            192,
            3,
            3
          ],
          "dtype": "float32"
        },
        {
          "name": "body.17.rdb1.conv5.bias",
          "shape": [
            64
          ],
          "dtype": "float32"
        },
        {
          "name": "body.17.rdb2.conv1.weight",
          "shape": [
            32,
            64,
            3,
            3
          ],
          "dtype": "float32"
        },
        {
          "name": "body.17.rdb2.conv1.bias",
          "shape": [
            32
          ],
          "dtype": "float32"
        },
        {
          "name": "body.17.rdb2.conv2.weight",
          "shape": [
            32,
            96,
            3,
            3
          ],
          "dtype": "float32"
        },
        {
          "name": "body.17.rdb2.conv2.bias",
          "shape": [
            32
          ],
          "dtype": "float32"
        },
        {
          "name": "body.17.rdb2.conv3.weight",
          "shape": [
            32,
            128,
            3,
            3
          ],
          "dtype": "float32"
        },
        {
          "name": "body.17.rdb2.conv3.bias",
          "shape": [
            32
          ],
          "dtype": "float32"
        },
        {
          "name": "body.17.rdb2.conv4.weight",
          "shape": [
            32,
            160,
            3,
            3
          ],
          "dtype": "float32"
        },
        {
          "name": "body.17.rdb2.conv4.bias",
          "shape": [
            32
          ],
          "dtype": "float32"
        },
        {
          "name": "body.17.rdb2.conv5.weight",
          "shape": [
            64,
            192,
            3,
            3
          ],
          "dtype": "float32"
        },
        {
          "name": "body.17.rdb2.conv5.bias",
          "shape": [
            64
          ],
          "dtype": "float32"
        },
        {
          "name": "body.17.rdb3.conv1.weight",
          "shape": [
            32,
            64,
            3,
            3
          ],
          "dtype": "float32"
        },
        {
          "name": "body.17.rdb3.conv1.bias",
          "shape": [
            32
          ],
          "dtype": "float32"
        },
        {
          "name": "body.17.rdb3.conv2.weight",
          "shape": [
            32,
            96,
            3,
            3
          ],
          "dtype": "float32"
        },
        {
          "name": "body.17.rdb3.conv2.bias",
          "shape": [
            32
          ],
          "dtype": "float32"
        },
        {
          "name": "body.17.rdb3.conv3.weight",
          "shape": [
            32,
            128,
            3,
            3
          ],
          "dtype": "float32"
        },
        {
          "name": "body.17.rdb3.conv3.bias",
          "shape": [
            32
          ],
          "dtype": "float32"
        },
        {
          "name": "body.17.rdb3.conv4.weight",
          "shape": [
            32,
            160,
            3,
            3
          ],
          "dtype": "float32"
        },
        {
          "name": "body.17.rdb3.conv4.bias",
          "shape": [
            32
          ],
          "dtype": "float32"
        },
        {
          "name": "body.17.rdb3.conv5.weight",
          "shape": [
            64,
            192,
            3,
            3
          ],
          "dtype": "float32"
        },
        {
          "name": "body.17.rdb3.conv5.bias",
          "shape": [
            64
          ],
          "dtype": "float32"
        },
        {
          "name": "body.18.rdb1.conv1.weight",
          "shape": [
            32,
            64,
            3,
            3
          ],
          "dtype": "float32"
        },
        {
          "name": "body.18.rdb1.conv1.bias",
          "shape": [
            32
          ],
          "dtype": "float32"
        },
        {
          "name": "body.18.rdb1.conv2.weight",
          "shape": [
            32,
            96,
            3,
            3
          ],
          "dtype": "float32"
        },
        {
          "name": "body.18.rdb1.conv2.bias",
          "shape": [
            32
          ],
          "dtype": "float32"
        },
        {
          "name": "body.18.rdb1.conv3.weight",
          "shape": [
            32,
            128,
            3,
            3
          ],
          "dtype": "float32"
        },
        {
          "name": "body.18.rdb1.conv3.bias",
          "shape": [
            32
          ],
          "dtype": "float32"
        },
        {
          "name": "body.18.rdb1.conv4.weight",
          "shape": [
            32,
            160,
            3,
            3
          ],
          "dtype": "float32"
        },
        {
          "name": "body.18.rdb1.conv4.bias",
          "shape": [
            32
          ],
          "dtype": "float32"
        },
        {
          "name": "body.18.rdb1.conv5.weight",
          "shape": [
            64,
            192,
            3,
            3
          ],
          "dtype": "float32"
        },
        {
          "name": "body.18.rdb1.conv5.bias",
          "shape": [
            64
          ],
          "dtype": "float32"
        },
        {
          "name": "body.18.rdb2.conv1.weight",
          "shape": [
            32,
            64,
            3,
            3
          ],
          "dtype": "float32"
        },
        {
          "name": "body.18.rdb2.conv1.bias",
          "shape": [
            32
          ],
          "dtype": "float32"
        },
        {
          "name": "body.18.rdb2.conv2.weight",
          "shape": [
            32,
            96,
            3,
            3
          ],
          "dtype": "float32"
        },
        {
          "name": "body.18.rdb2.conv2.bias",
          "shape": [
            32
          ],
          "dtype": "float32"
        },
        {
          "name": "body.18.rdb2.conv3.weight",
          "shape": [
            32,
            128,
            3,
            3
          ],
          "dtype": "float32"
        },
        {
          "name": "body.18.rdb2.conv3.bias",
          "shape": [
            32
          ],
          "dtype": "float32"
        },
        {
          "name": "body.18.rdb2.conv4.weight",
          "shape": [
            32,
            160,
            3,
            3
          ],
          "dtype": "float32"
        },
        {
          "name": "body.18.rdb2.conv4.bias",
          "shape": [
            32
          ],
          "dtype": "float32"
        },
        {
          "name": "body.18.rdb2.conv5.weight",
          "shape": [
            64,
            192,
            3,
            3
          ],
          "dtype": "float32"
        },
        {
          "name": "body.18.rdb2.conv5.bias",
          "shape": [
            64
          ],
          "dtype": "float32"
        },
        {
          "name": "body.18.rdb3.conv1.weight",
          "shape": [
            32,
            64,
            3,
            3
          ],
          "dtype": "float32"
        },
        {
          "name": "body.18.rdb3.conv1.bias",
          "shape": [
            32
          ],
          "dtype": "float32"
        },
        {
          "name": "body.18.rdb3.conv2.weight",
          "shape": [
            32,
            96,
            3,
            3
          ],
          "dtype": "float32"
        },
        {
          "name": "body.18.rdb3.conv2.bias",
          "shape": [
            32
          ],
          "dtype": "float32"
        },
        {
          "name": "body.18.rdb3.conv3.weight",
          "shape": [
            32,
            128,
            3,
            3
          ],
          "dtype": "float32"
        },
        {
          "name": "body.18.rdb3.conv3.bias",
          "shape": [
            32
          ],
          "dtype": "float32"
        },
        {
          "name": "body.18.rdb3.conv4.weight",
          "shape": [
            32,
            160,
            3,
            3
          ],
          "dtype": "float32"
        },
        {
          "name": "body.18.rdb3.conv4.bias",
          "shape": [
            32
          ],
          "dtype": "float32"
        },
        {
          "name": "body.18.rdb3.conv5.weight",
          "shape": [
            64,
            192,
            3,
            3
          ],
          "dtype": "float32"
        },
        {
          "name": "body.18.rdb3.conv5.bias",
          "shape": [
            64
          ],
          "dtype": "float32"
        },
        {
          "name": "body.19.rdb1.conv1.weight",
          "shape": [
            32,
            64,
            3,
            3
          ],
          "dtype": "float32"
        },
        {
          "name": "body.19.rdb1.conv1.bias",
          "shape": [
            32
          ],
          "dtype": "float32"
        },
        {
          "name": "body.19.rdb1.conv2.weight",
          "shape": [
            32,
            96,
            3,
            3
          ],
          "dtype": "float32"
        },
        {
          "name": "body.19.rdb1.conv2.bias",
          "shape": [
            32
          ],
          "dtype": "float32"
        },
        {
          "name": "body.19.rdb1.conv3.weight",
          "shape": [
            32,
            128,
            3,
            3
          ],
          "dtype": "float32"
        },
        {
          "name": "body.19.rdb1.conv3.bias",
          "shape": [
            32
          ],
          "dtype": "float32"
        },
        {
          "name": "body.19.rdb1.conv4.weight",
          "shape": [
            32,
            160,
            3,
            3
          ],
          "dtype": "float32"
        },
        {
          "name": "body.19.rdb1.conv4.bias",
          "shape": [
            32
          ],
          "dtype": "float32"
        },
        {
          "name": "body.19.rdb1.conv5.weight",
          "shape": [
            64,
            192,
            3,
            3
          ],
          "dtype": "float32"
        },
        {
          "name": "body.19.rdb1.conv5.bias",
          "shape": [
            64
          ],
          "dtype": "float32"
        },
        {
          "name": "body.19.rdb2.conv1.weight",
          "shape": [
            32,
            64,
            3,
            3
          ],
          "dtype": "float32"
        },
        {
          "name": "body.19.rdb2.conv1.bias",
          "shape": [
            32
          ],
          "dtype": "float32"
        },
        {
          "name": "body.19.rdb2.conv2.weight",
          "shape": [
            32,
            96,
            3,
            3
          ],
          "dtype": "float32"
        },
        {
          "name": "body.19.rdb2.conv2.bias",
          "shape": [
            32
          ],
          "dtype": "float32"
        },
        {
          "name": "body.19.rdb2.conv3.weight",
          "shape": [
            32,
            128,
            3,
            3
          ],
          "dtype": "float32"
        },
        {
          "name": "body.19.rdb2.conv3.bias",
          "shape": [
            32
          ],
          "dtype": "float32"
        },
        {
          "name": "body.19.rdb2.conv4.weight",
          "shape": [
            32,
            160,
            3,
            3
          ],
          "dtype": "float32"
        },
        {
          "name": "body.19.rdb2.conv4.bias",
          "shape": [
            32
          ],
          "dtype": "float32"
        },
        {
          "name": "body.19.rdb2.conv5.weight",
          "shape": [
            64,
            192,
            3,
            3
          ],
          "dtype": "float32"
        },
        {
          "name": "body.19.rdb2.conv5.bias",
          "shape": [
            64
          ],
          "dtype": "float32"
        },
        {
          "name": "body.19.rdb3.conv1.weight",
          "shape": [
            32,
            64,
            3,
            3
          ],
          "dtype": "float32"
        },
        {
          "name": "body.19.rdb3.conv1.bias",
          "shape": [
            32
          ],
          "dtype": "float32"
        },
        {
          "name": "body.19.rdb3.conv2.weight",
          "shape": [
            32,
            96,
            3,
            3
          ],
          "dtype": "float32"
        },
        {
          "name": "body.19.rdb3.conv2.bias",
          "shape": [
            32
          ],
          "dtype": "float32"
        },
        {
          "name": "body.19.rdb3.conv3.weight",
          "shape": [
            32,
            128,
            3,
            3
          ],
          "dtype": "float32"
        },
        {
          "name": "body.19.rdb3.conv3.bias",
          "shape": [
            32
          ],
          "dtype": "float32"
        },
        {
          "name": "body.19.rdb3.conv4.weight",
          "shape": [
            32,
            160,
            3,
            3
          ],
          "dtype": "float32"
        },
        {
          "name": "body.19.rdb3.conv4.bias",
          "shape": [
            32
          ],
          "dtype": "float32"
        },
        {
          "name": "body.19.rdb3.conv5.weight",
          "shape": [
            64,
            192,
            3,
            3
          ],
          "dtype": "float32"
        },
        {
          "name": "body.19.rdb3.conv5.bias",
          "shape": [
            64
          ],
          "dtype": "float32"
        },
        {
          "name": "body.20.rdb1.conv1.weight",
          "shape": [
            32,
            64,
            3,
            3
          ],
          "dtype": "float32"
        },
        {
          "name": "body.20.rdb1.conv1.bias",
          "shape": [
            32
          ],
          "dtype": "float32"
        },
        {
          "name": "body.20.rdb1.conv2.weight",
          "shape": [
            32,
            96,
            3,
            3
          ],
          "dtype": "float32"
        },
        {
          "name": "body.20.rdb1.conv2.bias",
          "shape": [
            32
          ],
          "dtype": "float32"
        },
        {
          "name": "body.20.rdb1.conv3.weight",
          "shape": [
            32,
            128,
            3,
            3
          ],
          "dtype": "float32"
        },
        {
          "name": "body.20.rdb1.conv3.bias",
          "shape": [
            32
          ],
          "dtype": "float32"
        },
        {
          "name": "body.20.rdb1.conv4.weight",
          "shape": [
            32,
            160,
            3,
            3
          ],
          "dtype": "float32"
        },
        {
          "name": "body.20.rdb1.conv4.bias",
          "shape": [
            32
          ],
          "dtype": "float32"
        },
        {
          "name": "body.20.rdb1.conv5.weight",
          "shape": [
            64,
            192,
            3,
            3
          ],
          "dtype": "float32"
        },
        {
          "name": "body.20.rdb1.conv5.bias",
          "shape": [
            64
          ],
          "dtype": "float32"
        },
        {
          "name": "body.20.rdb2.conv1.weight",
          "shape": [
            32,
            64,
            3,
            3
          ],
          "dtype": "float32"
        },
        {
          "name": "body.20.rdb2.conv1.bias",
          "shape": [
            32
          ],
          "dtype": "float32"
        },
        {
          "name": "body.20.rdb2.conv2.weight",
          "shape": [
            32,
            96,
            3,
            3
          ],
          "dtype": "float32"
        },
        {
          "name": "body.20.rdb2.conv2.bias",
          "shape": [
            32
          ],
          "dtype": "float32"
        },
        {
          "name": "body.20.rdb2.conv3.weight",
          "shape": [
            32,
            128,
            3,
            3
          ],
          "dtype": "float32"
        },
        {
          "name": "body.20.rdb2.conv3.bias",
          "shape": [
            32
          ],
          "dtype": "float32"
        },
        {
          "name": "body.20.rdb2.conv4.weight",
          "shape": [
            32,
            160,
            3,
            3
          ],
          "dtype": "float32"
        },
        {
          "name": "body.20.rdb2.conv4.bias",
          "shape": [
            32
          ],
          "dtype": "float32"
        },
        {
          "name": "body.20.rdb2.conv5.weight",
          "shape": [
            64,
            192,
            3,
            3
          ],
          "dtype": "float32"
        },
        {
          "name": "body.20.rdb2.conv5.bias",
          "shape": [
            64
          ],
          "dtype": "float32"
        },
        {
          "name": "body.20.rdb3.conv1.weight",
          "shape": [
            32,
            64,
            3,
            3
          ],
          "dtype": "float32"
        },
        {
          "name": "body.20.rdb3.conv1.bias",
          "shape": [
            32
          ],
          "dtype": "float32"
        },
        {
          "name": "body.20.rdb3.conv2.weight",
          "shape": [
            32,
            96,
            3,
            3
          ],
          "dtype": "float32"
        },
        {
          "name": "body.20.rdb3.conv2.bias",
          "shape": [
            32
          ],
          "dtype": "float32"
        },
        {
          "name": "body.20.rdb3.conv3.weight",
          "shape": [
            32,
            128,
            3,
            3
          ],
          "dtype": "float32"
        },
        {
          "name": "body.20.rdb3.conv3.bias",
          "shape": [
            32
          ],
          "dtype": "float32"
        },
        {
          "name": "body.20.rdb3.conv4.weight",
          "shape": [
            32,
            160,
            3,
            3
          ],
          "dtype": "float32"
        },
        {
          "name": "body.20.rdb3.conv4.bias",
          "shape": [
            32
          ],
          "dtype": "float32"
        },
        {
          "name": "body.20.rdb3.conv5.weight",
          "shape": [
            64,
            192,
            3,
            3
          ],
          "dtype": "float32"
        },
        {
          "name": "body.20.rdb3.conv5.bias",
          "shape": [
            64
          ],
          "dtype": "float32"
        },
        {
          "name": "body.21.rdb1.conv1.weight",
          "shape": [
            32,
            64,
            3,
            3
          ],
          "dtype": "float32"
        },
        {
          "name": "body.21.rdb1.conv1.bias",
          "shape": [
            32
          ],
          "dtype": "float32"
        },
        {
          "name": "body.21.rdb1.conv2.weight",
          "shape": [
            32,
            96,
            3,
            3
          ],
          "dtype": "float32"
        },
        {
          "name": "body.21.rdb1.conv2.bias",
          "shape": [
            32
          ],
          "dtype": "float32"
        },
        {
          "name": "body.21.rdb1.conv3.weight",
          "shape": [
            32,
            128,
            3,
            3
          ],
          "dtype": "float32"
        },
        {
          "name": "body.21.rdb1.conv3.bias",
          "shape": [
            32
          ],
          "dtype": "float32"
        },
        {
          "name": "body.21.rdb1.conv4.weight",
          "shape": [
            32,
            160,
            3,
            3
          ],
          "dtype": "float32"
        },
        {
          "name": "body.21.rdb1.conv4.bias",
          "shape": [
            32
          ],
          "dtype": "float32"
        },
        {
          "name": "body.21.rdb1.conv5.weight",
          "shape": [
            64,
            192,
            3,
            3
          ],
          "dtype": "float32"
        },
        {
          "name": "body.21.rdb1.conv5.bias",
          "shape": [
            64
          ],
          "dtype": "float32"
        },
        {
          "name": "body.21.rdb2.conv1.weight",
          "shape": [
            32,
            64,
            3,
            3
          ],
          "dtype": "float32"
        },
        {
          "name": "body.21.rdb2.conv1.bias",
          "shape": [
            32
          ],
          "dtype": "float32"
        },
        {
          "name": "body.21.rdb2.conv2.weight",
          "shape": [
            32,
            96,
            3,
            3
          ],
          "dtype": "float32"
        },
        {
          "name": "body.21.rdb2.conv2.bias",
          "shape": [
            32
          ],
          "dtype": "float32"
        },
        {
          "name": "body.21.rdb2.conv3.weight",
          "shape": [
            32,
            128,
            3,
            3
          ],
          "dtype": "float32"
        },
        {
          "name": "body.21.rdb2.conv3.bias",
          "shape": [
            32
          ],
          "dtype": "float32"
        },
        {
          "name": "body.21.rdb2.conv4.weight",
          "shape": [
            32,
            160,
            3,
            3
          ],
          "dtype": "float32"
        },
        {
          "name": "body.21.rdb2.conv4.bias",
          "shape": [
            32
          ],
          "dtype": "float32"
        },
        {
          "name": "body.21.rdb2.conv5.weight",
          "shape": [
            64,
            192,
            3,
            3
          ],
          "dtype": "float32"
        },
        {
          "name": "body.21.rdb2.conv5.bias",
          "shape": [
            64
          ],
          "dtype": "float32"
        },
        {
          "name": "body.21.rdb3.conv1.weight",
          "shape": [
            32,
            64,
            3,
            3
          ],
          "dtype": "float32"
        },
        {
          "name": "body.21.rdb3.conv1.bias",
          "shape": [
            32
          ],
          "dtype": "float32"
        },
        {
          "name": "body.21.rdb3.conv2.weight",
          "shape": [
            32,
            96,
            3,
            3
          ],
          "dtype": "float32"
        },
        {
          "name": "body.21.rdb3.conv2.bias",
          "shape": [
            32
          ],
          "dtype": "float32"
        },
        {
          "name": "body.21.rdb3.conv3.weight",
          "shape": [
            32,
            128,
            3,
            3
          ],
          "dtype": "float32"
        },
        {
          "name": "body.21.rdb3.conv3.bias",
          "shape": [
            32
          ],
          "dtype": "float32"
        },
        {
          "name": "body.21.rdb3.conv4.weight",
          "shape": [
            32,
            160,
            3,
            3
          ],
          "dtype": "float32"
        },
        {
          "name": "body.21.rdb3.conv4.bias",
          "shape": [
            32
          ],
          "dtype": "float32"
        },
        {
          "name": "body.21.rdb3.conv5.weight",
          "shape": [
            64,
            192,
            3,
            3
          ],
          "dtype": "float32"
        },
        {
          "name": "body.21.rdb3.conv5.bias",
          "shape": [
            64
          ],
          "dtype": "float32"
        },
        {
          "name": "body.22.rdb1.conv1.weight",
          "shape": [
            32,
            64,
            3,
            3
          ],
          "dtype": "float32"
        },
        {
          "name": "body.22.rdb1.conv1.bias",
          "shape": [
            32
          ],
          "dtype": "float32"
        },
        {
          "name": "body.22.rdb1.conv2.weight",
          "shape": [
            32,
            96,
            3,
            3
          ],
          "dtype": "float32"
        },
        {
          "name": "body.22.rdb1.conv2.bias",
          "shape": [
            32
          ],
          "dtype": "float32"
        },
        {
          "name": "body.22.rdb1.conv3.weight",
          "shape": [
            32,
            128,
            3,
            3
          ],
          "dtype": "float32"
        },
        {
          "name": "body.22.rdb1.conv3.bias",
          "shape": [
            32
          ],
          "dtype": "float32"
        },
        {
          "name": "body.22.rdb1.conv4.weight",
          "shape": [
            32,
            160,
            3,
            3
          ],
          "dtype": "float32"
        },
        {
          "name": "body.22.rdb1.conv4.bias",
          "shape": [
            32
          ],
          "dtype": "float32"
        },
        {
          "name": "body.22.rdb1.conv5.weight",
          "shape": [
            64,
            192,
            3,
            3
          ],
          "dtype": "float32"
        },
        {
          "name": "body.22.rdb1.conv5.bias",
          "shape": [
            64
          ],
          "dtype": "float32"
        },
        {
          "name": "body.22.rdb2.conv1.weight",
          "shape": [
            32,
            64,
            3,
            3
          ],
          "dtype": "float32"
        },
        {
          "name": "body.22.rdb2.conv1.bias",
          "shape": [
            32
          ],
          "dtype": "float32"
        },
        {
          "name": "body.22.rdb2.conv2.weight",
          "shape": [
            32,
            96,
            3,
            3
          ],
          "dtype": "float32"
        },
        {
          "name": "body.22.rdb2.conv2.bias",
          "shape": [
            32
          ],
          "dtype": "float32"
        },
        {
          "name": "body.22.rdb2.conv3.weight",
          "shape": [
            32,
            128,
            3,
            3
          ],
          "dtype": "float32"
        },
        {
          "name": "body.22.rdb2.conv3.bias",
          "shape": [
            32
          ],
          "dtype": "float32"
        },
        {
          "name": "body.22.rdb2.conv4.weight",
          "shape": [
            32,
            160,
            3,
            3
          ],
          "dtype": "float32"
        },
        {
          "name": "body.22.rdb2.conv4.bias",
          "shape": [
            32
          ],
          "dtype": "float32"
        },
        {
          "name": "body.22.rdb2.conv5.weight",
          "shape": [
            64,
            192,
            3,
            3
          ],
          "dtype": "float32"
        },
        {
          "name": "body.22.rdb2.conv5.bias",
          "shape": [
            64
          ],
          "dtype": "float32"
        },
        {
          "name": "body.22.rdb3.conv1.weight",
          "shape": [
            32,
            64,
            3,
            3
          ],
          "dtype": "float32"
        },
        {
          "name": "body.22.rdb3.conv1.bias",
          "shape": [
            32
          ],
          "dtype": "float32"
        },
        {
          "name": "body.22.rdb3.conv2.weight",
          "shape": [
            32,
            96,
            3,
            3
          ],
          "dtype": "float32"
        },
        {
          "name": "body.22.rdb3.conv2.bias",
          "shape": [
            32
          ],
          "dtype": "float32"
        },
        {
          "name": "body.22.rdb3.conv3.weight",
          "shape": [
            32,
            128,
            3,
            3
          ],
          "dtype": "float32"
        },
        {
          "name": "body.22.rdb3.conv3.bias",
          "shape": [
            32
          ],
          "dtype": "float32"
        },
        {
          "name": "body.22.rdb3.conv4.weight",
          "shape": [
            32,
            160,
            3,
            3
          ],
          "dtype": "float32"
        },
        {
          "name": "body.22.rdb3.conv4.bias",
          "shape": [
            32
          ],
          "dtype": "float32"
        },
        {
          "name": "body.22.rdb3.conv5.weight",
          "shape": [
            64,
            192,
            3,
            3
          ],
          "dtype": "float32"
        },
        {
          "name": "body.22.rdb3.conv5.bias",
          "shape": [
            64
          ],
          "dtype": "float32"
        },
        {
          "name": "conv_body.weight",
          "shape": [
            64,
            64,
            3,
            3
          ],
          "dtype": "float32"
        },
        {
          "name": "conv_body.bias",
          "shape": [
            64
          ],
          "dtype": "float32"
        },
        {
          "name": "conv_up1.weight",
          "shape": [
            64,
            64,
            3,
            3
          ],
          "dtype": "float32"
        },
        {
          "name": "conv_up1.bias",
          "shape": [
            64
          ],
          "dtype": "float32"
        },
        {
          "name": "conv_up2.weight",
          "shape": [
            64,
            64,
            3,
            3
          ],
          "dtype": "float32"
        },
        {
          "name": "conv_up2.bias",
          "shape": [
            64
          ],
          "dtype": "float32"
        },
        {
          "name": "conv_hr.weight",
          "shape": [
            64,
            64,
            3,
            3
          ],
          "dtype": "float32"
        },
        {
          "name": "conv_hr.bias",
          "shape": [
            64
          ],
          "dtype": "float32"
        },
        {
          "name": "conv_last.weight",
          "shape": [
            3,
            64,
            3,
            3
          ],
          "dtype": "float32"
        },
        {
          "name": "conv_last.bias",
          "shape": [
            3
          ],
          "dtype": "float32"
        }
      ]
    }
  ]
}